…
2024-11-01 20:42:52,963 - INFO - Loaded data with shape: (306, 2081)
2024-11-01 20:42:52,967 - INFO - Filtered data shape: (108, 2081)
2024-11-01 20:42:52,968 - INFO - Dataset shape after filtering: (108, 2081)
2024-11-01 20:42:52,969 - INFO - Features shape: (108, 2080), Labels shape: (108, 2)
2024-11-01 20:42:52,970 - INFO - Created DataLoader with 2 batches
2024-11-01 20:42:52,970 - INFO - Total number of samples: 108
2024-11-01 20:42:54,190 - INFO - Created model: Transformer(
  (encoder): Encoder(
    (layers): ModuleList(
      (0-3): 4 x EncoderLayer(
        (self_attention): MultiHeadAttention(
          (query): Linear(in_features=2080, out_features=2080, bias=True)
          (key): Linear(in_features=2080, out_features=2080, bias=True)
          (value): Linear(in_features=2080, out_features=2080, bias=True)
          (fc_out): Linear(in_features=2080, out_features=2080, bias=True)
        )
        (feed_forward): FeedForward(
          (fc1): Linear(in_features=2080, out_features=128, bias=True)
          (fc2): Linear(in_features=128, out_features=2080, bias=True)
          (dropout): Dropout(p=0.2, inplace=False)
        )
        (norm1): LayerNorm((2080,), eps=1e-05, elementwise_affine=True)
        (norm2): LayerNorm((2080,), eps=1e-05, elementwise_affine=True)
        (dropout1): Dropout(p=0.2, inplace=False)
        (dropout2): Dropout(p=0.2, inplace=False)
      )
    )
  )
  (decoder): Decoder(
    (layers): ModuleList(
      (0-3): 4 x DecoderLayer(
        (self_attention): MultiHeadAttention(
          (query): Linear(in_features=2080, out_features=2080, bias=True)
          (key): Linear(in_features=2080, out_features=2080, bias=True)
          (value): Linear(in_features=2080, out_features=2080, bias=True)
          (fc_out): Linear(in_features=2080, out_features=2080, bias=True)
        )
        (cross_attention): MultiHeadAttention(
          (query): Linear(in_features=2080, out_features=2080, bias=True)
          (key): Linear(in_features=2080, out_features=2080, bias=True)
          (value): Linear(in_features=2080, out_features=2080, bias=True)
          (fc_out): Linear(in_features=2080, out_features=2080, bias=True)
        )
        (feed_forward): FeedForward(
          (fc1): Linear(in_features=2080, out_features=128, bias=True)
          (fc2): Linear(in_features=128, out_features=2080, bias=True)
          (dropout): Dropout(p=0.2, inplace=False)
        )
        (norm1): LayerNorm((2080,), eps=1e-05, elementwise_affine=True)
        (norm2): LayerNorm((2080,), eps=1e-05, elementwise_affine=True)
        (norm3): LayerNorm((2080,), eps=1e-05, elementwise_affine=True)
        (dropout1): Dropout(p=0.2, inplace=False)
        (dropout2): Dropout(p=0.2, inplace=False)
        (dropout3): Dropout(p=0.2, inplace=False)
      )
    )
  )
  (fc): Linear(in_features=2080, out_features=2, bias=True)
)
2024-11-01 20:42:54,928 - INFO - Starting k-fold cross validation training
2024-11-01 20:42:54,950 - INFO - 
Starting Fold 1/5
2024-11-01 20:42:55,639 - INFO - Epoch 1: New best validation accuracy: 1.0000
2024-11-01 20:42:55,639 - INFO - Achieved perfect validation accuracy!
2024-11-01 20:42:55,639 - INFO - Current metrics:
2024-11-01 20:42:55,639 - INFO - balanced_accuracy: 1.0000
…
