INFO:__main__:Reading the dataset: fish oil
INFO:__main__:model: Transformer(
  (decoder): Decoder(
    (layers): ModuleList(
      (0-2): 3 x DecoderLayer(
        (self_attention): MultiHeadAttention(
          (query): Linear(in_features=1023, out_features=1023, bias=True)
          (key): Linear(in_features=1023, out_features=1023, bias=True)
          (value): Linear(in_features=1023, out_features=1023, bias=True)
          (fc_out): Linear(in_features=1023, out_features=1023, bias=True)
        )
        (cross_attention): MultiHeadAttention(
          (query): Linear(in_features=1023, out_features=1023, bias=True)
          (key): Linear(in_features=1023, out_features=1023, bias=True)
          (value): Linear(in_features=1023, out_features=1023, bias=True)
          (fc_out): Linear(in_features=1023, out_features=1023, bias=True)
        )
        (feed_forward): FeedForward(
          (fc1): Linear(in_features=1023, out_features=128, bias=True)
          (fc2): Linear(in_features=128, out_features=1023, bias=True)
          (dropout): Dropout(p=0.2, inplace=False)
        )
        (norm1): LayerNorm((1023,), eps=1e-05, elementwise_affine=True)
        (norm2): LayerNorm((1023,), eps=1e-05, elementwise_affine=True)
        (norm3): LayerNorm((1023,), eps=1e-05, elementwise_affine=True)
        (dropout1): Dropout(p=0.2, inplace=False)
        (dropout2): Dropout(p=0.2, inplace=False)
        (dropout3): Dropout(p=0.2, inplace=False)
      )
    )
  )
  (fc): Linear(in_features=1023, out_features=1023, bias=True)
)
INFO:__main__:Pre-training the network: Masked Spectra Modelling
INFO:pre_training:Epoch [1/100], Loss: 0.0146, Val: 0.0026
INFO:pre_training:Epoch [2/100], Loss: 0.0136, Val: 0.0024
INFO:pre_training:Epoch [3/100], Loss: 0.0130, Val: 0.0022
INFO:pre_training:Epoch [4/100], Loss: 0.0125, Val: 0.0022
INFO:pre_training:Epoch [5/100], Loss: 0.0122, Val: 0.0021
…
INFO:pre_training:Epoch [94/100], Loss: 0.0043, Val: 0.0005
INFO:pre_training:Epoch [95/100], Loss: 0.0043, Val: 0.0005
INFO:pre_training:Epoch [96/100], Loss: 0.0043, Val: 0.0005
INFO:pre_training:Epoch [97/100], Loss: 0.0043, Val: 0.0005
INFO:pre_training:Epoch [98/100], Loss: 0.0043, Val: 0.0005
INFO:pre_training:Epoch [99/100], Loss: 0.0042, Val: 0.0006
INFO:pre_training:Epoch [100/100], Loss: 0.0043, Val: 0.0005
INFO:__main__:Total time taken to pre-train the model: 17.56s
INFO:__main__:model: Transformer(
  (decoder): Decoder(
    (layers): ModuleList(
      (0-2): 3 x DecoderLayer(
        (self_attention): MultiHeadAttention(
          (query): Linear(in_features=1023, out_features=1023, bias=True)
          (key): Linear(in_features=1023, out_features=1023, bias=True)
          (value): Linear(in_features=1023, out_features=1023, bias=True)
          (fc_out): Linear(in_features=1023, out_features=1023, bias=True)
        )
        (cross_attention): MultiHeadAttention(
          (query): Linear(in_features=1023, out_features=1023, bias=True)
          (key): Linear(in_features=1023, out_features=1023, bias=True)
          (value): Linear(in_features=1023, out_features=1023, bias=True)
          (fc_out): Linear(in_features=1023, out_features=1023, bias=True)
        )
        (feed_forward): FeedForward(
          (fc1): Linear(in_features=1023, out_features=128, bias=True)
          (fc2): Linear(in_features=128, out_features=1023, bias=True)
          (dropout): Dropout(p=0.2, inplace=False)
        )
        (norm1): LayerNorm((1023,), eps=1e-05, elementwise_affine=True)
        (norm2): LayerNorm((1023,), eps=1e-05, elementwise_affine=True)
        (norm3): LayerNorm((1023,), eps=1e-05, elementwise_affine=True)
        (dropout1): Dropout(p=0.2, inplace=False)
        (dropout2): Dropout(p=0.2, inplace=False)
        (dropout3): Dropout(p=0.2, inplace=False)
      )
    )
  )
  (fc): Linear(in_features=1023, out_features=2, bias=True)
)
INFO:__main__:Training the network
INFO:train:Epoch 1/100, Train Loss: 0.7263, Train Acc: 0.4492, Val Loss: 0.7017, Val Acc: 0.4681
INFO:train:Epoch 2/100, Train Loss: 0.6828, Train Acc: 0.5348, Val Loss: 0.6999, Val Acc: 0.5319
INFO:train:Epoch 3/100, Train Loss: 0.6554, Train Acc: 0.6096, Val Loss: 0.6687, Val Acc: 0.6596
INFO:train:Epoch 4/100, Train Loss: 0.6377, Train Acc: 0.6631, Val Loss: 0.6745, Val Acc: 0.5957
…
