INFO:__main__:Reading the dataset: fish oil
INFO:__main__:model: Transformer(
  (encoder): Encoder(
    (layers): ModuleList(
      (0-5): 6 x EncoderLayer(
        (self_attention): MultiHeadAttention(
          (query): Linear(in_features=1023, out_features=1023, bias=True)
          (key): Linear(in_features=1023, out_features=1023, bias=True)
          (value): Linear(in_features=1023, out_features=1023, bias=True)
          (fc_out): Linear(in_features=1023, out_features=1023, bias=True)
        )
        (feed_forward): FeedForward(
          (fc1): Linear(in_features=1023, out_features=128, bias=True)
          (fc2): Linear(in_features=128, out_features=1023, bias=True)
          (dropout): Dropout(p=0.2, inplace=False)
        )
        (norm1): LayerNorm((1023,), eps=1e-05, elementwise_affine=True)
        (norm2): LayerNorm((1023,), eps=1e-05, elementwise_affine=True)
        (dropout1): Dropout(p=0.2, inplace=False)
        (dropout2): Dropout(p=0.2, inplace=False)
      )
    )
  )
  (fc): Linear(in_features=1023, out_features=1023, bias=True)
)
INFO:__main__:Pre-training the network: Masked Spectra Modelling
INFO:pre_training:Epoch [1/100], Loss: 0.1261, Val: 0.0037
INFO:pre_training:Epoch [2/100], Loss: 0.1049, Val: 0.0031
INFO:pre_training:Epoch [3/100], Loss: 0.0907, Val: 0.0025
INFO:pre_training:Epoch [4/100], Loss: 0.0794, Val: 0.0021
INFO:pre_training:Epoch [5/100], Loss: 0.0708, Val: 0.0019
…
INFO:pre_training:Epoch [94/100], Loss: 0.0111, Val: 0.0004
INFO:pre_training:Epoch [95/100], Loss: 0.0110, Val: 0.0004
INFO:pre_training:Epoch [96/100], Loss: 0.0108, Val: 0.0004
INFO:pre_training:Epoch [97/100], Loss: 0.0108, Val: 0.0004
INFO:pre_training:Epoch [98/100], Loss: 0.0107, Val: 0.0004
INFO:pre_training:Epoch [99/100], Loss: 0.0106, Val: 0.0004
INFO:pre_training:Epoch [100/100], Loss: 0.0104, Val: 0.0004
INFO:__main__:Total time taken to pre-train the model: 338.76s
INFO:__main__:model: Transformer(
  (encoder): Encoder(
    (layers): ModuleList(
      (0-5): 6 x EncoderLayer(
        (self_attention): MultiHeadAttention(
          (query): Linear(in_features=1023, out_features=1023, bias=True)
          (key): Linear(in_features=1023, out_features=1023, bias=True)
          (value): Linear(in_features=1023, out_features=1023, bias=True)
          (fc_out): Linear(in_features=1023, out_features=1023, bias=True)
        )
        (feed_forward): FeedForward(
          (fc1): Linear(in_features=1023, out_features=128, bias=True)
          (fc2): Linear(in_features=128, out_features=1023, bias=True)
          (dropout): Dropout(p=0.2, inplace=False)
        )
        (norm1): LayerNorm((1023,), eps=1e-05, elementwise_affine=True)
        (norm2): LayerNorm((1023,), eps=1e-05, elementwise_affine=True)
        (dropout1): Dropout(p=0.2, inplace=False)
        (dropout2): Dropout(p=0.2, inplace=False)
      )
    )
  )
  (fc): Linear(in_features=1023, out_features=2, bias=True)
)
INFO:__main__:Training the network
INFO:train:Epoch 1/100, Train Loss: 0.6513, Train Acc: 0.6283, Val Loss: 0.5962, Val Acc: 0.8085
INFO:train:Epoch 2/100, Train Loss: 0.5681, Train Acc: 0.7656, Val Loss: 0.5382, Val Acc: 0.7447
INFO:train:Epoch 3/100, Train Loss: 0.4831, Train Acc: 0.8494, Val Loss: 0.4939, Val Acc: 0.8298
INFO:train:Epoch 4/100, Train Loss: 0.3920, Train Acc: 0.9020, Val Loss: 0.5804, Val Acc: 0.8298
…
