…
2024-11-27 19:22:07,283 - INFO - Starting main training phase
2024-11-27 19:22:07,283 - INFO - Loading dataset: part
2024-11-27 19:22:07,283 - INFO - Loading data from: /vol/ecrg-solar/woodj4/fishy-business/data/REIMS.xlsx
2024-11-27 19:22:16,451 - INFO - Loaded data with shape: (306, 2081)
2024-11-27 19:22:16,457 - INFO - Filtered data shape: (36, 2081)
2024-11-27 19:22:16,457 - INFO - Dataset shape after filtering: (36, 2081)
2024-11-27 19:22:16,458 - INFO - Features shape: (36, 2080), Labels shape: (36, 7)
2024-11-27 19:22:16,715 - INFO - Created model: KAN(
  (layers): ModuleList(
    (0-2): 3 x KANLayer(
      (inner_linear1): Linear(in_features=2080, out_features=128, bias=True)
      (inner_bn1): BatchNorm1d(128, eps=1e-05, momentum=0.1, affine=True, track_running_stats=True)
      (inner_linear2): Linear(in_features=128, out_features=128, bias=True)
      (inner_bn2): BatchNorm1d(128, eps=1e-05, momentum=0.1, affine=True, track_running_stats=True)
      (inner_linear3): Linear(in_features=128, out_features=41610, bias=True)
      (outer_linear1): Linear(in_features=10, out_features=128, bias=True)
      (outer_bn1): BatchNorm1d(128, eps=1e-05, momentum=0.1, affine=True, track_running_stats=True)
      (outer_linear2): Linear(in_features=128, out_features=128, bias=True)
      (outer_bn2): BatchNorm1d(128, eps=1e-05, momentum=0.1, affine=True, track_running_stats=True)
      (outer_linear3): Linear(in_features=128, out_features=2080, bias=True)
      (dropout): Dropout(p=0.2, inplace=False)
    )
    (3): KANLayer(
      (inner_linear1): Linear(in_features=2080, out_features=128, bias=True)
      (inner_bn1): BatchNorm1d(128, eps=1e-05, momentum=0.1, affine=True, track_running_stats=True)
      (inner_linear2): Linear(in_features=128, out_features=128, bias=True)
      (inner_bn2): BatchNorm1d(128, eps=1e-05, momentum=0.1, affine=True, track_running_stats=True)
      (inner_linear3): Linear(in_features=128, out_features=41610, bias=True)
      (outer_linear1): Linear(in_features=10, out_features=128, bias=True)
      (outer_bn1): BatchNorm1d(128, eps=1e-05, momentum=0.1, affine=True, track_running_stats=True)
      (outer_linear2): Linear(in_features=128, out_features=128, bias=True)
      (outer_bn2): BatchNorm1d(128, eps=1e-05, momentum=0.1, affine=True, track_running_stats=True)
      (outer_linear3): Linear(in_features=128, out_features=7, bias=True)
      (dropout): Dropout(p=0.2, inplace=False)
    )
  )
)
2024-11-27 19:22:16,974 - INFO - Starting k-fold cross validation training
2024-11-27 19:22:16,984 - INFO - 
Starting Fold 1/3
2024-11-27 19:22:16,992 - INFO - Starting data augmentation with 5 augmentations per sample
2024-11-27 19:22:17,006 - INFO - Augmentation complete. Dataset size increased from 24 to 144 samples
…
