…

2024-11-27 19:31:47,413 - INFO - Starting main training phase
2024-11-27 19:31:47,413 - INFO - Loading dataset: part
2024-11-27 19:31:47,413 - INFO - Loading data from: /vol/ecrg-solar/woodj4/fishy-business/data/REIMS.xlsx
2024-11-27 19:31:56,599 - INFO - Loaded data with shape: (306, 2081)
2024-11-27 19:31:56,605 - INFO - Filtered data shape: (36, 2081)
2024-11-27 19:31:56,605 - INFO - Dataset shape after filtering: (36, 2081)
2024-11-27 19:31:56,606 - INFO - Features shape: (36, 2080), Labels shape: (36, 7)
2024-11-27 19:31:56,758 - INFO - Created model: VAE(
  (encoder): Sequential(
    (0): Linear(in_features=2080, out_features=512, bias=True)
    (1): ReLU()
    (2): Dropout(p=0.2, inplace=False)
    (3): Linear(in_features=512, out_features=256, bias=True)
    (4): ReLU()
    (5): Dropout(p=0.2, inplace=False)
    (6): Linear(in_features=256, out_features=128, bias=True)
    (7): ReLU()
    (8): Dropout(p=0.2, inplace=False)
  )
  (fc_mu): Linear(in_features=128, out_features=128, bias=True)
  (fc_logvar): Linear(in_features=128, out_features=128, bias=True)
  (decoder): Sequential(
    (0): Linear(in_features=135, out_features=128, bias=True)
    (1): ReLU()
    (2): Dropout(p=0.2, inplace=False)
    (3): Linear(in_features=128, out_features=256, bias=True)
    (4): ReLU()
    (5): Dropout(p=0.2, inplace=False)
    (6): Linear(in_features=256, out_features=512, bias=True)
    (7): ReLU()
    (8): Dropout(p=0.2, inplace=False)
    (9): Linear(in_features=512, out_features=2080, bias=True)
    (10): Sigmoid()
    (11): Dropout(p=0.2, inplace=False)
  )
  (classifier): Sequential(
    (0): Linear(in_features=128, out_features=64, bias=True)
    (1): ReLU()
    (2): Linear(in_features=64, out_features=7, bias=True)
  )
)
2024-11-27 19:31:57,002 - INFO - Starting k-fold cross validation training
2024-11-27 19:31:57,007 - INFO - 
Starting Fold 1/3
2024-11-27 19:31:57,010 - INFO - Starting data augmentation with 5 augmentations per sample
2024-11-27 19:31:57,022 - INFO - Augmentation complete. Dataset size increased from 24 to 144 samples
2024-11-27 19:31:57,197 - INFO - Epoch 1: New best validation accuracy: 0.2143
…
