…
2024-11-27 20:16:01,249 - INFO - Starting main training phase
2024-11-27 20:16:01,249 - INFO - Loading dataset: species
2024-11-27 20:16:01,249 - INFO - Loading data from: /vol/ecrg-solar/woodj4/fishy-business/data/REIMS.xlsx
2024-11-27 20:16:10,535 - INFO - Loaded data with shape: (306, 2081)
2024-11-27 20:16:10,541 - INFO - Filtered data shape: (108, 2081)
2024-11-27 20:16:10,541 - INFO - Dataset shape after filtering: (108, 2081)
2024-11-27 20:16:10,542 - INFO - Features shape: (108, 2080), Labels shape: (108, 2)
2024-11-27 20:16:10,850 - INFO - Created model: CNN(
  (conv_layers): Sequential(
    (0): Conv1d(1, 32, kernel_size=(3,), stride=(1,), padding=(1,))
    (1): BatchNorm1d(32, eps=1e-05, momentum=0.1, affine=True, track_running_stats=True)
    (2): Conv1d(32, 64, kernel_size=(3,), stride=(1,), padding=(1,))
    (3): BatchNorm1d(64, eps=1e-05, momentum=0.1, affine=True, track_running_stats=True)
    (4): ReLU()
    (5): MaxPool1d(kernel_size=2, stride=2, padding=0, dilation=1, ceil_mode=False)
    (6): Dropout(p=0.2, inplace=False)
    (7): Conv1d(64, 128, kernel_size=(3,), stride=(1,), padding=(1,))
    (8): BatchNorm1d(128, eps=1e-05, momentum=0.1, affine=True, track_running_stats=True)
    (9): Conv1d(128, 256, kernel_size=(3,), stride=(1,), padding=(1,))
    (10): BatchNorm1d(256, eps=1e-05, momentum=0.1, affine=True, track_running_stats=True)
    (11): ReLU()
    (12): MaxPool1d(kernel_size=2, stride=2, padding=0, dilation=1, ceil_mode=False)
  )
  (flatten): Flatten(start_dim=1, end_dim=-1)
  (fc_layers): Sequential(
    (0): Linear(in_features=133120, out_features=256, bias=True)
    (1): ReLU()
    (2): Dropout(p=0.2, inplace=False)
    (3): Linear(in_features=256, out_features=2, bias=True)
  )
)
2024-11-27 20:16:11,116 - INFO - Starting k-fold cross validation training
2024-11-27 20:16:11,123 - INFO - 
Starting Fold 1/5
2024-11-27 20:16:11,126 - INFO - Starting data augmentation with 5 augmentations per sample
2024-11-27 20:16:11,166 - INFO - Augmentation complete. Dataset size increased from 86 to 516 samples
2024-11-27 20:16:11,559 - INFO - Epoch 1: New best validation accuracy: 0.5000
…
