INFO:__main__:Reading the dataset: fish oil
INFO:__main__:model: Transformer(
  (encoder): Encoder(
    (layers): ModuleList(
      (0-2): 3 x EncoderLayer(
        (self_attention): MultiHeadAttention(
          (query): Linear(in_features=1023, out_features=1023, bias=True)
          (key): Linear(in_features=1023, out_features=1023, bias=True)
          (value): Linear(in_features=1023, out_features=1023, bias=True)
          (fc_out): Linear(in_features=1023, out_features=1023, bias=True)
        )
        (feed_forward): FeedForward(
          (fc1): Linear(in_features=1023, out_features=128, bias=True)
          (fc2): Linear(in_features=128, out_features=1023, bias=True)
          (dropout): Dropout(p=0.2, inplace=False)
        )
        (norm1): LayerNorm((1023,), eps=1e-05, elementwise_affine=True)
        (norm2): LayerNorm((1023,), eps=1e-05, elementwise_affine=True)
        (dropout1): Dropout(p=0.2, inplace=False)
        (dropout2): Dropout(p=0.2, inplace=False)
      )
    )
  )
  (fc): Linear(in_features=1023, out_features=1023, bias=True)
)
INFO:__main__:Pre-training the network: Masked Spectra Modelling
INFO:pre_training:Epoch [1/100], Loss: 0.0685, Val: 0.0021
INFO:pre_training:Epoch [2/100], Loss: 0.0585, Val: 0.0018
INFO:pre_training:Epoch [3/100], Loss: 0.0528, Val: 0.0021
INFO:pre_training:Epoch [4/100], Loss: 0.0486, Val: 0.0015
INFO:pre_training:Epoch [5/100], Loss: 0.0450, Val: 0.0013
…
INFO:pre_training:Epoch [94/100], Loss: 0.0072, Val: 0.0003
INFO:pre_training:Epoch [95/100], Loss: 0.0072, Val: 0.0003
INFO:pre_training:Epoch [96/100], Loss: 0.0071, Val: 0.0003
INFO:pre_training:Epoch [97/100], Loss: 0.0070, Val: 0.0003
INFO:pre_training:Epoch [98/100], Loss: 0.0069, Val: 0.0003
INFO:pre_training:Epoch [99/100], Loss: 0.0068, Val: 0.0003
INFO:pre_training:Epoch [100/100], Loss: 0.0067, Val: 0.0004
INFO:__main__:Total time taken to pre-train the model: 58.58s
INFO:__main__:model: Transformer(
  (encoder): Encoder(
    (layers): ModuleList(
      (0-2): 3 x EncoderLayer(
        (self_attention): MultiHeadAttention(
          (query): Linear(in_features=1023, out_features=1023, bias=True)
          (key): Linear(in_features=1023, out_features=1023, bias=True)
          (value): Linear(in_features=1023, out_features=1023, bias=True)
          (fc_out): Linear(in_features=1023, out_features=1023, bias=True)
        )
        (feed_forward): FeedForward(
          (fc1): Linear(in_features=1023, out_features=128, bias=True)
          (fc2): Linear(in_features=128, out_features=1023, bias=True)
          (dropout): Dropout(p=0.2, inplace=False)
        )
        (norm1): LayerNorm((1023,), eps=1e-05, elementwise_affine=True)
        (norm2): LayerNorm((1023,), eps=1e-05, elementwise_affine=True)
        (dropout1): Dropout(p=0.2, inplace=False)
        (dropout2): Dropout(p=0.2, inplace=False)
      )
    )
  )
  (fc): Linear(in_features=1023, out_features=2, bias=True)
)
INFO:__main__:Training the network
INFO:train:Epoch 1/100, Train Loss: 0.6537, Train Acc: 0.6150, Val Loss: 0.6268, Val Acc: 0.6170
INFO:train:Epoch 2/100, Train Loss: 0.5810, Train Acc: 0.7398, Val Loss: 0.5726, Val Acc: 0.8085
INFO:train:Epoch 3/100, Train Loss: 0.5065, Train Acc: 0.8396, Val Loss: 0.5345, Val Acc: 0.8511
INFO:train:Epoch 4/100, Train Loss: 0.4341, Train Acc: 0.8770, Val Loss: 0.5112, Val Acc: 0.8085
…
