INFO:__main__:Reading the dataset: fish oil
INFO:__main__:model: Transformer(
  (encoder): Encoder(
    (layers): ModuleList(
      (0-2): 3 x EncoderLayer(
        (self_attention): MultiHeadAttention(
          (query): Linear(in_features=1023, out_features=1023, bias=True)
          (key): Linear(in_features=1023, out_features=1023, bias=True)
          (value): Linear(in_features=1023, out_features=1023, bias=True)
          (fc_out): Linear(in_features=1023, out_features=1023, bias=True)
        )
        (feed_forward): FeedForward(
          (fc1): Linear(in_features=1023, out_features=128, bias=True)
          (fc2): Linear(in_features=128, out_features=1023, bias=True)
          (dropout): Dropout(p=0.2, inplace=False)
        )
        (norm1): LayerNorm((1023,), eps=1e-05, elementwise_affine=True)
        (norm2): LayerNorm((1023,), eps=1e-05, elementwise_affine=True)
        (dropout1): Dropout(p=0.2, inplace=False)
        (dropout2): Dropout(p=0.2, inplace=False)
      )
    )
  )
  (fc): Linear(in_features=1023, out_features=1023, bias=True)
)
INFO:__main__:Pre-training the network: Masked Spectra Modelling
INFO:pre_training:Epoch [1/100], Loss: 0.0678, Val: 0.0022
INFO:pre_training:Epoch [2/100], Loss: 0.0580, Val: 0.0020
INFO:pre_training:Epoch [3/100], Loss: 0.0526, Val: 0.0017
INFO:pre_training:Epoch [4/100], Loss: 0.0479, Val: 0.0015
INFO:pre_training:Epoch [5/100], Loss: 0.0442, Val: 0.0014
…
INFO:pre_training:Epoch [94/100], Loss: 0.0072, Val: 0.0004
INFO:pre_training:Epoch [95/100], Loss: 0.0071, Val: 0.0003
INFO:pre_training:Epoch [96/100], Loss: 0.0070, Val: 0.0003
INFO:pre_training:Epoch [97/100], Loss: 0.0069, Val: 0.0003
INFO:pre_training:Epoch [98/100], Loss: 0.0069, Val: 0.0003
INFO:pre_training:Epoch [99/100], Loss: 0.0068, Val: 0.0003
INFO:pre_training:Epoch [100/100], Loss: 0.0067, Val: 0.0003
INFO:__main__:Total time taken to pre-train the model: 58.64s
INFO:__main__:model: Transformer(
  (encoder): Encoder(
    (layers): ModuleList(
      (0-2): 3 x EncoderLayer(
        (self_attention): MultiHeadAttention(
          (query): Linear(in_features=1023, out_features=1023, bias=True)
          (key): Linear(in_features=1023, out_features=1023, bias=True)
          (value): Linear(in_features=1023, out_features=1023, bias=True)
          (fc_out): Linear(in_features=1023, out_features=1023, bias=True)
        )
        (feed_forward): FeedForward(
          (fc1): Linear(in_features=1023, out_features=128, bias=True)
          (fc2): Linear(in_features=128, out_features=1023, bias=True)
          (dropout): Dropout(p=0.2, inplace=False)
        )
        (norm1): LayerNorm((1023,), eps=1e-05, elementwise_affine=True)
        (norm2): LayerNorm((1023,), eps=1e-05, elementwise_affine=True)
        (dropout1): Dropout(p=0.2, inplace=False)
        (dropout2): Dropout(p=0.2, inplace=False)
      )
    )
  )
  (fc): Linear(in_features=1023, out_features=2, bias=True)
)
INFO:__main__:Training the network
INFO:train:Epoch 1/100, Train Loss: 0.6633, Train Acc: 0.6364, Val Loss: 0.6123, Val Acc: 0.7660
INFO:train:Epoch 2/100, Train Loss: 0.5834, Train Acc: 0.7656, Val Loss: 0.5671, Val Acc: 0.8085
INFO:train:Epoch 3/100, Train Loss: 0.5143, Train Acc: 0.8342, Val Loss: 0.5521, Val Acc: 0.7021
INFO:train:Epoch 4/100, Train Loss: 0.4421, Train Acc: 0.8788, Val Loss: 0.5059, Val Acc: 0.7660
…
