…
2025-01-26 22:17:41,880 - INFO - Starting main training phase
2025-01-26 22:17:41,880 - INFO - Loading dataset: oil
2025-01-26 22:17:41,880 - INFO - Loading data from: /home/woodj/Desktop/fishy-business/data/REIMS.xlsx
2025-01-26 22:17:48,468 - INFO - Loaded data with shape: (306, 2081)
2025-01-26 22:17:48,473 - INFO - Filtered data shape: (126, 2081)
2025-01-26 22:17:48,473 - INFO - Dataset shape after filtering: (126, 2081)
2025-01-26 22:17:48,474 - INFO - Features shape: (126, 2080), Labels shape: (126, 7)
2025-01-26 22:17:48,489 - INFO - Created model: TestTimeTransformer(
  (spectral_embedding): Sequential(
    (0): Linear(in_features=2080, out_features=256, bias=True)
    (1): LayerNorm((256,), eps=1e-05, elementwise_affine=True)
    (2): GELU(approximate='none')
    (3): Dropout(p=0.2, inplace=False)
    (4): Linear(in_features=256, out_features=128, bias=True)
    (5): LayerNorm((128,), eps=1e-05, elementwise_affine=True)
    (6): GELU(approximate='none')
  )
  (attention_layers): ModuleList(
    (0-3): 4 x MultiHeadAttention(
      (qkv): Linear(in_features=128, out_features=384, bias=True)
      (fc_out): Linear(in_features=128, out_features=128, bias=True)
    )
  )
  (feed_forward): Sequential(
    (0): Linear(in_features=128, out_features=512, bias=True)
    (1): GELU(approximate='none')
    (2): Dropout(p=0.2, inplace=False)
    (3): Linear(in_features=512, out_features=128, bias=True)
  )
  (layer_norms): ModuleList(
    (0-7): 8 x LayerNorm((128,), eps=1e-05, elementwise_affine=True)
  )
  (dropout): Dropout(p=0.2, inplace=False)
  (fc_out): Linear(in_features=128, out_features=7, bias=True)
  (prm): ProcessRewardModel(
    (encoder): Sequential(
      (0): Linear(in_features=128, out_features=128, bias=True)
      (1): LayerNorm((128,), eps=1e-05, elementwise_affine=True)
      (2): GELU(approximate='none')
      (3): Dropout(p=0.1, inplace=False)
      (4): Linear(in_features=128, out_features=128, bias=True)
      (5): LayerNorm((128,), eps=1e-05, elementwise_affine=True)
      (6): GELU(approximate='none')
    )
    (classifier): Sequential(
      (0): Linear(in_features=128, out_features=128, bias=True)
      (1): LayerNorm((128,), eps=1e-05, elementwise_affine=True)
      (2): GELU(approximate='none')
      (3): Dropout(p=0.1, inplace=False)
      (4): Linear(in_features=128, out_features=1, bias=True)
      (5): Sigmoid()
    )
  )
)
2025-01-26 22:17:48,758 - INFO - Evaluating test-time compute performance...
2025-01-26 22:17:48,761 - INFO - 
Processing fold 1/5
2025-01-26 22:17:48,768 - INFO - Created model: TestTimeTransformer(
  (spectral_embedding): Sequential(
    (0): Linear(in_features=2080, out_features=256, bias=True)
    (1): LayerNorm((256,), eps=1e-05, elementwise_affine=True)
    (2): GELU(approximate='none')
    (3): Dropout(p=0.2, inplace=False)
    (4): Linear(in_features=256, out_features=128, bias=True)
    (5): LayerNorm((128,), eps=1e-05, elementwise_affine=True)
    (6): GELU(approximate='none')
  )
  (attention_layers): ModuleList(
    (0-3): 4 x MultiHeadAttention(
      (qkv): Linear(in_features=128, out_features=384, bias=True)
      (fc_out): Linear(in_features=128, out_features=128, bias=True)
    )
  )
  (feed_forward): Sequential(
    (0): Linear(in_features=128, out_features=512, bias=True)
    (1): GELU(approximate='none')
    (2): Dropout(p=0.2, inplace=False)
    (3): Linear(in_features=512, out_features=128, bias=True)
  )
  (layer_norms): ModuleList(
    (0-7): 8 x LayerNorm((128,), eps=1e-05, elementwise_affine=True)
  )
  (dropout): Dropout(p=0.2, inplace=False)
  (fc_out): Linear(in_features=128, out_features=7, bias=True)
  (prm): ProcessRewardModel(
    (encoder): Sequential(
      (0): Linear(in_features=128, out_features=128, bias=True)
      (1): LayerNorm((128,), eps=1e-05, elementwise_affine=True)
      (2): GELU(approximate='none')
      (3): Dropout(p=0.1, inplace=False)
      (4): Linear(in_features=128, out_features=128, bias=True)
      (5): LayerNorm((128,), eps=1e-05, elementwise_affine=True)
      (6): GELU(approximate='none')
    )
    (classifier): Sequential(
      (0): Linear(in_features=128, out_features=128, bias=True)
      (1): LayerNorm((128,), eps=1e-05, elementwise_affine=True)
      (2): GELU(approximate='none')
      (3): Dropout(p=0.1, inplace=False)
      (4): Linear(in_features=128, out_features=1, bias=True)
      (5): Sigmoid()
    )
  )
)
2025-01-26 22:17:49,357 - INFO - Training base model for fold 1
2025-01-26 22:17:49,357 - INFO - Training model with single train/val split (80/20)
2025-01-26 22:17:49,359 - INFO - Training set size: 66
2025-01-26 22:17:49,359 - INFO - Validation set size: 34
2025-01-26 22:17:49,580 - INFO - Epoch 1: New best validation accuracy: 0.1429
…
2025-01-26 22:19:07,686 - INFO - accuracy: 0.1538
2025-01-26 22:19:07,686 - INFO - precision: 0.0889
2025-01-26 22:19:07,686 - INFO - recall: 0.1667
2025-01-26 22:19:07,686 - INFO - f1: 0.1111
2025-01-26 22:19:07,686 - INFO - 
Test-time compute metrics (monte carlo rollout):
2025-01-26 22:19:07,686 - INFO - accuracy: 0.1923
2025-01-26 22:19:07,686 - INFO - precision: 0.1844
2025-01-26 22:19:07,686 - INFO - recall: 0.1905
2025-01-26 22:19:07,686 - INFO - f1: 0.1712
2025-01-26 22:19:07,686 - INFO - 
Processing fold 2/5
2025-01-26 22:19:07,694 - INFO - Created model: TestTimeTransformer(
  (spectral_embedding): Sequential(
    (0): Linear(in_features=2080, out_features=256, bias=True)
    (1): LayerNorm((256,), eps=1e-05, elementwise_affine=True)
    (2): GELU(approximate='none')
    (3): Dropout(p=0.2, inplace=False)
    (4): Linear(in_features=256, out_features=128, bias=True)
    (5): LayerNorm((128,), eps=1e-05, elementwise_affine=True)
    (6): GELU(approximate='none')
  )
  (attention_layers): ModuleList(
    (0-3): 4 x MultiHeadAttention(
      (qkv): Linear(in_features=128, out_features=384, bias=True)
      (fc_out): Linear(in_features=128, out_features=128, bias=True)
    )
  )
  (feed_forward): Sequential(
    (0): Linear(in_features=128, out_features=512, bias=True)
    (1): GELU(approximate='none')
    (2): Dropout(p=0.2, inplace=False)
    (3): Linear(in_features=512, out_features=128, bias=True)
  )
  (layer_norms): ModuleList(
    (0-7): 8 x LayerNorm((128,), eps=1e-05, elementwise_affine=True)
  )
  (dropout): Dropout(p=0.2, inplace=False)
  (fc_out): Linear(in_features=128, out_features=7, bias=True)
  (prm): ProcessRewardModel(
    (encoder): Sequential(
      (0): Linear(in_features=128, out_features=128, bias=True)
      (1): LayerNorm((128,), eps=1e-05, elementwise_affine=True)
      (2): GELU(approximate='none')
      (3): Dropout(p=0.1, inplace=False)
      (4): Linear(in_features=128, out_features=128, bias=True)
      (5): LayerNorm((128,), eps=1e-05, elementwise_affine=True)
      (6): GELU(approximate='none')
    )
    (classifier): Sequential(
      (0): Linear(in_features=128, out_features=128, bias=True)
      (1): LayerNorm((128,), eps=1e-05, elementwise_affine=True)
      (2): GELU(approximate='none')
      (3): Dropout(p=0.1, inplace=False)
      (4): Linear(in_features=128, out_features=1, bias=True)
      (5): Sigmoid()
    )
  )
)
2025-01-26 22:19:07,698 - INFO - Training base model for fold 2
2025-01-26 22:19:07,698 - INFO - Training model with single train/val split (80/20)
2025-01-26 22:19:07,700 - INFO - Training set size: 67
2025-01-26 22:19:07,701 - INFO - Validation set size: 34
2025-01-26 22:19:07,750 - INFO - Epoch 1: New best validation accuracy: 0.1429
…
