…
2024-11-02 16:53:36,217 - INFO - Loading data from: /home/woodj/Desktop/fishy-business/data/REIMS.xlsx
2024-11-02 16:53:42,078 - INFO - Loaded data with shape: (306, 2081)
2024-11-02 16:53:42,081 - INFO - Filtered data shape: (72, 2081)
2024-11-02 16:53:42,081 - INFO - Dataset shape after filtering: (72, 2081)
2024-11-02 16:53:42,081 - INFO - Features shape: (72, 2080), Labels shape: (72, 24)
2024-11-02 16:53:42,242 - INFO - Applying siamese dataset with 50 pairs per sample...
2024-11-02 16:53:42,242 - INFO - Dataset size increased from 72 to 3600 samples
2024-11-02 16:53:42,553 - INFO - Created model: RCNN(
  (conv_layers): Sequential(
    (0): ResidualBlock(
      (conv1): Conv1d(1, 32, kernel_size=(3,), stride=(1,), padding=(1,))
      (bn1): BatchNorm1d(32, eps=1e-05, momentum=0.1, affine=True, track_running_stats=True)
      (relu): ReLU()
      (conv2): Conv1d(32, 32, kernel_size=(3,), stride=(1,), padding=(1,))
      (bn2): BatchNorm1d(32, eps=1e-05, momentum=0.1, affine=True, track_running_stats=True)
      (dropout): Dropout(p=0.2, inplace=False)
      (shortcut): Sequential(
        (0): Conv1d(1, 32, kernel_size=(1,), stride=(1,))
        (1): BatchNorm1d(32, eps=1e-05, momentum=0.1, affine=True, track_running_stats=True)
      )
    )
    (1): ResidualBlock(
      (conv1): Conv1d(32, 64, kernel_size=(3,), stride=(2,), padding=(1,))
      (bn1): BatchNorm1d(64, eps=1e-05, momentum=0.1, affine=True, track_running_stats=True)
      (relu): ReLU()
      (conv2): Conv1d(64, 64, kernel_size=(3,), stride=(1,), padding=(1,))
      (bn2): BatchNorm1d(64, eps=1e-05, momentum=0.1, affine=True, track_running_stats=True)
      (dropout): Dropout(p=0.2, inplace=False)
      (shortcut): Sequential(
        (0): Conv1d(32, 64, kernel_size=(1,), stride=(2,))
        (1): BatchNorm1d(64, eps=1e-05, momentum=0.1, affine=True, track_running_stats=True)
      )
    )
    (2): ResidualBlock(
      (conv1): Conv1d(64, 128, kernel_size=(3,), stride=(1,), padding=(1,))
      (bn1): BatchNorm1d(128, eps=1e-05, momentum=0.1, affine=True, track_running_stats=True)
      (relu): ReLU()
      (conv2): Conv1d(128, 128, kernel_size=(3,), stride=(1,), padding=(1,))
      (bn2): BatchNorm1d(128, eps=1e-05, momentum=0.1, affine=True, track_running_stats=True)
      (dropout): Dropout(p=0.2, inplace=False)
      (shortcut): Sequential(
        (0): Conv1d(64, 128, kernel_size=(1,), stride=(1,))
        (1): BatchNorm1d(128, eps=1e-05, momentum=0.1, affine=True, track_running_stats=True)
      )
    )
    (3): ResidualBlock(
      (conv1): Conv1d(128, 256, kernel_size=(3,), stride=(2,), padding=(1,))
      (bn1): BatchNorm1d(256, eps=1e-05, momentum=0.1, affine=True, track_running_stats=True)
      (relu): ReLU()
      (conv2): Conv1d(256, 256, kernel_size=(3,), stride=(1,), padding=(1,))
      (bn2): BatchNorm1d(256, eps=1e-05, momentum=0.1, affine=True, track_running_stats=True)
      (dropout): Dropout(p=0.2, inplace=False)
      (shortcut): Sequential(
        (0): Conv1d(128, 256, kernel_size=(1,), stride=(2,))
        (1): BatchNorm1d(256, eps=1e-05, momentum=0.1, affine=True, track_running_stats=True)
      )
    )
    (4): AdaptiveMaxPool1d(output_size=4)
  )
  (flatten): Flatten(start_dim=1, end_dim=-1)
  (fc_layers): Sequential(
    (0): Linear(in_features=1024, out_features=256, bias=True)
    (1): ReLU()
    (2): Dropout(p=0.2, inplace=False)
    (3): Linear(in_features=256, out_features=2, bias=True)
  )
)
2024-11-02 16:53:43,285 - INFO - Starting k-fold cross validation training
2024-11-02 16:53:43,302 - INFO - 
Starting Fold 1/5
2024-11-02 16:53:46,356 - INFO - Epoch 1: New best validation accuracy: 0.5080
2024-11-02 16:53:48,680 - INFO - Epoch 2: New best validation accuracy: 0.6356
2024-11-02 16:53:51,009 - INFO - Epoch 3: New best validation accuracy: 0.6875
…
