…
2024-11-01 23:55:00,643 - INFO - Starting main training phase
2024-11-01 23:55:00,643 - INFO - Loading dataset: species
2024-11-01 23:55:00,644 - INFO - Loading data from: /home/woodj/Desktop/fishy-business/data/REIMS_data.xlsx
2024-11-01 23:55:03,305 - INFO - Loaded data with shape: (306, 1024)
2024-11-01 23:55:03,308 - INFO - Filtered data shape: (108, 1024)
2024-11-01 23:55:03,308 - INFO - Dataset shape after filtering: (108, 1024)
2024-11-01 23:55:03,309 - INFO - Features shape: (108, 1023), Labels shape: (108, 2)
2024-11-01 23:55:03,597 - INFO - Created model: RCNN(
  (conv_layers): Sequential(
    (0): ResidualBlock(
      (conv1): Conv1d(1, 32, kernel_size=(3,), stride=(1,), padding=(1,))
      (bn1): BatchNorm1d(32, eps=1e-05, momentum=0.1, affine=True, track_running_stats=True)
      (relu): ReLU()
      (conv2): Conv1d(32, 32, kernel_size=(3,), stride=(1,), padding=(1,))
      (bn2): BatchNorm1d(32, eps=1e-05, momentum=0.1, affine=True, track_running_stats=True)
      (dropout): Dropout(p=0.2, inplace=False)
      (shortcut): Sequential(
        (0): Conv1d(1, 32, kernel_size=(1,), stride=(1,))
        (1): BatchNorm1d(32, eps=1e-05, momentum=0.1, affine=True, track_running_stats=True)
      )
    )
    (1): ResidualBlock(
      (conv1): Conv1d(32, 64, kernel_size=(3,), stride=(2,), padding=(1,))
      (bn1): BatchNorm1d(64, eps=1e-05, momentum=0.1, affine=True, track_running_stats=True)
      (relu): ReLU()
      (conv2): Conv1d(64, 64, kernel_size=(3,), stride=(1,), padding=(1,))
      (bn2): BatchNorm1d(64, eps=1e-05, momentum=0.1, affine=True, track_running_stats=True)
      (dropout): Dropout(p=0.2, inplace=False)
      (shortcut): Sequential(
        (0): Conv1d(32, 64, kernel_size=(1,), stride=(2,))
        (1): BatchNorm1d(64, eps=1e-05, momentum=0.1, affine=True, track_running_stats=True)
      )
    )
    (2): ResidualBlock(
      (conv1): Conv1d(64, 128, kernel_size=(3,), stride=(1,), padding=(1,))
      (bn1): BatchNorm1d(128, eps=1e-05, momentum=0.1, affine=True, track_running_stats=True)
      (relu): ReLU()
      (conv2): Conv1d(128, 128, kernel_size=(3,), stride=(1,), padding=(1,))
      (bn2): BatchNorm1d(128, eps=1e-05, momentum=0.1, affine=True, track_running_stats=True)
      (dropout): Dropout(p=0.2, inplace=False)
      (shortcut): Sequential(
        (0): Conv1d(64, 128, kernel_size=(1,), stride=(1,))
        (1): BatchNorm1d(128, eps=1e-05, momentum=0.1, affine=True, track_running_stats=True)
      )
    )
    (3): ResidualBlock(
      (conv1): Conv1d(128, 256, kernel_size=(3,), stride=(2,), padding=(1,))
      (bn1): BatchNorm1d(256, eps=1e-05, momentum=0.1, affine=True, track_running_stats=True)
      (relu): ReLU()
      (conv2): Conv1d(256, 256, kernel_size=(3,), stride=(1,), padding=(1,))
      (bn2): BatchNorm1d(256, eps=1e-05, momentum=0.1, affine=True, track_running_stats=True)
      (dropout): Dropout(p=0.2, inplace=False)
      (shortcut): Sequential(
        (0): Conv1d(128, 256, kernel_size=(1,), stride=(2,))
        (1): BatchNorm1d(256, eps=1e-05, momentum=0.1, affine=True, track_running_stats=True)
      )
    )
    (4): AdaptiveMaxPool1d(output_size=4)
  )
  (flatten): Flatten(start_dim=1, end_dim=-1)
  (fc_layers): Sequential(
    (0): Linear(in_features=1024, out_features=256, bias=True)
    (1): ReLU()
    (2): Dropout(p=0.2, inplace=False)
    (3): Linear(in_features=256, out_features=2, bias=True)
  )
)
2024-11-01 23:55:04,295 - INFO - Starting k-fold cross validation training
2024-11-01 23:55:04,310 - INFO - 
Starting Fold 1/5
2024-11-01 23:55:04,648 - INFO - Epoch 1: New best validation accuracy: 0.5000
2024-11-01 23:55:04,883 - INFO - Epoch 5
2024-11-01 23:55:04,883 - INFO - Train Loss: 0.8440
2024-11-01 23:55:04,883 - INFO - Val Loss: 0.6867
2024-11-01 23:55:04,883 - INFO - Current Val Accuracy: 0.5000
…
