…
2025-02-19 21:25:33,121 - INFO - Loading dataset: part
2025-02-19 21:25:33,121 - INFO - Loading data from: /home/woodj/Desktop/fishy-business/data/REIMS.xlsx
2025-02-19 21:25:38,892 - INFO - Loaded data with shape: (306, 2081)
2025-02-19 21:25:38,897 - INFO - Filtered data shape: (36, 2081)
2025-02-19 21:25:38,897 - INFO - Dataset shape after filtering: (36, 2081)
2025-02-19 21:25:38,898 - INFO - Features shape: (36, 2080), Labels shape: (36, 7)
2025-02-19 21:25:40,054 - INFO - Created model: Ensemble(
  (lstm): LSTM(
    (lstm): LSTM(2080, 128, num_layers=4, batch_first=True)
    (dropout): Dropout(p=0.2, inplace=False)
    (fc): Linear(in_features=128, out_features=7, bias=True)
  )
  (transformer): Transformer(
    (attention_layers): ModuleList(
      (0-3): 4 x MultiHeadAttention(
        (qkv): Linear(in_features=2080, out_features=6240, bias=True)
        (fc_out): Linear(in_features=2080, out_features=2080, bias=True)
      )
    )
    (feed_forward): Sequential(
      (0): Linear(in_features=2080, out_features=128, bias=True)
      (1): GELU(approximate='none')
      (2): Dropout(p=0.2, inplace=False)
      (3): Linear(in_features=128, out_features=2080, bias=True)
    )
    (layer_norm1): LayerNorm((2080,), eps=1e-05, elementwise_affine=True)
    (layer_norm2): LayerNorm((2080,), eps=1e-05, elementwise_affine=True)
    (dropout): Dropout(p=0.2, inplace=False)
    (fc_out): Linear(in_features=2080, out_features=7, bias=True)
  )
  (mamba): Mamba(
    (layers): ModuleList(
      (0-3): 4 x MambaBlock(
        (in_proj): Linear(in_features=2080, out_features=4160, bias=True)
        (conv): Conv1d(4160, 4160, kernel_size=(4,), stride=(1,), padding=(3,), groups=4160)
        (activation): SiLU()
        (dropout): Dropout(p=0.2, inplace=False)
        (layer_norm): LayerNorm((2080,), eps=1e-05, elementwise_affine=True)
        (x_proj): Linear(in_features=4160, out_features=2208, bias=True)
        (dt_proj): Linear(in_features=4160, out_features=128, bias=True)
        (out_proj): Linear(in_features=4160, out_features=2080, bias=True)
        (us_proj): Linear(in_features=128, out_features=2080, bias=True)
      )
    )
    (dropout): Dropout(p=0.2, inplace=False)
    (fc): Linear(in_features=2080, out_features=7, bias=True)
    (layer_norm): LayerNorm((2080,), eps=1e-05, elementwise_affine=True)
  )
)
2025-02-19 21:25:40,612 - INFO - Starting 30 independent runs of 5-fold cross validation
2025-02-19 21:25:40,631 - INFO - 
Starting Run 1/30
2025-02-19 21:25:40,651 - INFO - Run 1, Fold 1/5
2025-02-19 21:25:42,087 - INFO - Epoch 1: New best validation accuracy: 0.5000
2025-02-19 21:25:54,605 - INFO - Epoch 5
2025-02-19 21:25:54,605 - INFO - Train Loss: 4.7416
…
