…
2025-01-14 22:44:46,343 - INFO - Starting main training phase
2025-01-14 22:44:46,343 - INFO - Loading dataset: part
2025-01-14 22:44:46,343 - INFO - Loading data from: /home/woodj/Desktop/fishy-business/data/REIMS.xlsx
2025-01-14 22:44:55,337 - INFO - Loaded data with shape: (306, 2081)
2025-01-14 22:44:55,344 - INFO - Filtered data shape: (36, 2081)
2025-01-14 22:44:55,344 - INFO - Dataset shape after filtering: (36, 2081)
2025-01-14 22:44:55,346 - INFO - Features shape: (36, 2080), Labels shape: (36, 7)
2025-01-14 22:44:56,057 - INFO - Created model: TestTimeTransformer(
  (attention_layers): ModuleList(
    (0-3): 4 x MultiHeadAttention(
      (qkv): Linear(in_features=2080, out_features=6240, bias=True)
      (fc_out): Linear(in_features=2080, out_features=2080, bias=True)
    )
  )
  (feed_forward): Sequential(
    (0): Linear(in_features=2080, out_features=128, bias=True)
    (1): GELU(approximate='none')
    (2): Dropout(p=0.2, inplace=False)
    (3): Linear(in_features=128, out_features=2080, bias=True)
  )
  (layer_norm1): LayerNorm((2080,), eps=1e-05, elementwise_affine=True)
  (layer_norm2): LayerNorm((2080,), eps=1e-05, elementwise_affine=True)
  (dropout): Dropout(p=0.2, inplace=False)
  (fc_out): Linear(in_features=2080, out_features=7, bias=True)
  (process_reward_model): SimplifiedPRM(
    (net): Sequential(
      (0): Linear(in_features=7, out_features=128, bias=True)
      (1): LayerNorm((128,), eps=1e-05, elementwise_affine=True)
      (2): ReLU()
      (3): Linear(in_features=128, out_features=128, bias=True)
      (4): LayerNorm((128,), eps=1e-05, elementwise_affine=True)
      (5): ReLU()
      (6): Linear(in_features=128, out_features=1, bias=True)
      (7): Sigmoid()
    )
  )
  (refinement_network): Sequential(
    (0): Linear(in_features=14, out_features=128, bias=True)
    (1): LayerNorm((128,), eps=1e-05, elementwise_affine=True)
    (2): ReLU()
    (3): Linear(in_features=128, out_features=7, bias=True)
  )
)
2025-01-14 22:44:56,058 - INFO - Evaluating test-time compute performance...
2025-01-14 22:44:56,061 - INFO - 
Processing fold 1/3
2025-01-14 22:44:56,753 - INFO - Created model: TestTimeTransformer(
  (attention_layers): ModuleList(
    (0-3): 4 x MultiHeadAttention(
      (qkv): Linear(in_features=2080, out_features=6240, bias=True)
      (fc_out): Linear(in_features=2080, out_features=2080, bias=True)
    )
  )
  (feed_forward): Sequential(
    (0): Linear(in_features=2080, out_features=128, bias=True)
    (1): GELU(approximate='none')
    (2): Dropout(p=0.2, inplace=False)
    (3): Linear(in_features=128, out_features=2080, bias=True)
  )
  (layer_norm1): LayerNorm((2080,), eps=1e-05, elementwise_affine=True)
  (layer_norm2): LayerNorm((2080,), eps=1e-05, elementwise_affine=True)
  (dropout): Dropout(p=0.2, inplace=False)
  (fc_out): Linear(in_features=2080, out_features=7, bias=True)
  (process_reward_model): SimplifiedPRM(
    (net): Sequential(
      (0): Linear(in_features=7, out_features=128, bias=True)
      (1): LayerNorm((128,), eps=1e-05, elementwise_affine=True)
      (2): ReLU()
      (3): Linear(in_features=128, out_features=128, bias=True)
      (4): LayerNorm((128,), eps=1e-05, elementwise_affine=True)
      (5): ReLU()
      (6): Linear(in_features=128, out_features=1, bias=True)
      (7): Sigmoid()
    )
  )
  (refinement_network): Sequential(
    (0): Linear(in_features=14, out_features=128, bias=True)
    (1): LayerNorm((128,), eps=1e-05, elementwise_affine=True)
    (2): ReLU()
    (3): Linear(in_features=128, out_features=7, bias=True)
  )
)
2025-01-14 22:44:57,968 - INFO - Training base model for fold 1
2025-01-14 22:44:57,968 - INFO - Training model directly (no cross-validation)
2025-01-14 22:44:59,281 - INFO - Epoch 1: New best validation accuracy: 0.7500
2025-01-14 22:45:03,603 - INFO - Epoch 5: New best validation accuracy: 0.7857
2025-01-14 22:45:03,604 - INFO - Epoch 5
2025-01-14 22:45:03,604 - INFO - Train Loss: 13.4238
…
2025-01-14 22:47:06,740 - INFO - precision: 0.4048
2025-01-14 22:47:06,740 - INFO - recall: 0.5000
2025-01-14 22:47:06,740 - INFO - f1: 0.4048
2025-01-14 22:47:06,740 - INFO - 
Test-time compute metrics (genetic programming):
2025-01-14 22:47:06,740 - INFO - accuracy: 0.5000
2025-01-14 22:47:06,740 - INFO - precision: 0.5238
2025-01-14 22:47:06,740 - INFO - recall: 0.5000
2025-01-14 22:47:06,740 - INFO - f1: 0.4952
2025-01-14 22:47:06,740 - INFO - 
Processing fold 2/3
2025-01-14 22:47:07,642 - INFO - Created model: TestTimeTransformer(
  (attention_layers): ModuleList(
    (0-3): 4 x MultiHeadAttention(
      (qkv): Linear(in_features=2080, out_features=6240, bias=True)
      (fc_out): Linear(in_features=2080, out_features=2080, bias=True)
    )
  )
  (feed_forward): Sequential(
    (0): Linear(in_features=2080, out_features=128, bias=True)
    (1): GELU(approximate='none')
    (2): Dropout(p=0.2, inplace=False)
    (3): Linear(in_features=128, out_features=2080, bias=True)
  )
  (layer_norm1): LayerNorm((2080,), eps=1e-05, elementwise_affine=True)
  (layer_norm2): LayerNorm((2080,), eps=1e-05, elementwise_affine=True)
  (dropout): Dropout(p=0.2, inplace=False)
  (fc_out): Linear(in_features=2080, out_features=7, bias=True)
  (process_reward_model): SimplifiedPRM(
    (net): Sequential(
      (0): Linear(in_features=7, out_features=128, bias=True)
      (1): LayerNorm((128,), eps=1e-05, elementwise_affine=True)
      (2): ReLU()
      (3): Linear(in_features=128, out_features=128, bias=True)
      (4): LayerNorm((128,), eps=1e-05, elementwise_affine=True)
      (5): ReLU()
      (6): Linear(in_features=128, out_features=1, bias=True)
      (7): Sigmoid()
    )
  )
  (refinement_network): Sequential(
    (0): Linear(in_features=14, out_features=128, bias=True)
    (1): LayerNorm((128,), eps=1e-05, elementwise_affine=True)
    (2): ReLU()
    (3): Linear(in_features=128, out_features=7, bias=True)
  )
)
2025-01-14 22:47:07,746 - INFO - Training base model for fold 2
2025-01-14 22:47:07,746 - INFO - Training model directly (no cross-validation)
2025-01-14 22:47:09,241 - INFO - Epoch 1: New best validation accuracy: 0.7857
2025-01-14 22:47:14,244 - INFO - Epoch 5
2025-01-14 22:47:14,244 - INFO - Train Loss: 12.2605
2025-01-14 22:47:14,244 - INFO - Val Loss: 11.5583
…
