…
2025-01-23 18:58:08,797 - INFO - Starting main training phase
2025-01-23 18:58:08,797 - INFO - Loading dataset: oil
2025-01-23 18:58:08,798 - INFO - Loading data from: /vol/ecrg-solar/woodj4/fishy-business/data/REIMS.xlsx
2025-01-23 18:58:21,100 - INFO - Loaded data with shape: (306, 2081)
2025-01-23 18:58:21,105 - INFO - Filtered data shape: (126, 2081)
2025-01-23 18:58:21,105 - INFO - Dataset shape after filtering: (126, 2081)
2025-01-23 18:58:21,107 - INFO - Features shape: (126, 2080), Labels shape: (126, 7)
2025-01-23 18:58:21,147 - INFO - Created model: TestTimeTransformer(
  (spectral_embedding): Sequential(
    (0): Linear(in_features=2080, out_features=256, bias=True)
    (1): LayerNorm((256,), eps=1e-05, elementwise_affine=True)
    (2): GELU(approximate='none')
    (3): Dropout(p=0.2, inplace=False)
    (4): Linear(in_features=256, out_features=128, bias=True)
    (5): LayerNorm((128,), eps=1e-05, elementwise_affine=True)
    (6): GELU(approximate='none')
  )
  (attention_layers): ModuleList(
    (0-3): 4 x MultiHeadAttention(
      (qkv): Linear(in_features=128, out_features=384, bias=True)
      (fc_out): Linear(in_features=128, out_features=128, bias=True)
    )
  )
  (feed_forward): Sequential(
    (0): Linear(in_features=128, out_features=512, bias=True)
    (1): GELU(approximate='none')
    (2): Dropout(p=0.2, inplace=False)
    (3): Linear(in_features=512, out_features=128, bias=True)
  )
  (layer_norms): ModuleList(
    (0-7): 8 x LayerNorm((128,), eps=1e-05, elementwise_affine=True)
  )
  (dropout): Dropout(p=0.2, inplace=False)
  (fc_out): Linear(in_features=128, out_features=7, bias=True)
  (prm_encoder): Sequential(
    (0): Linear(in_features=128, out_features=256, bias=True)
    (1): LayerNorm((256,), eps=1e-05, elementwise_affine=True)
    (2): GELU(approximate='none')
    (3): Dropout(p=0.2, inplace=False)
    (4): Linear(in_features=256, out_features=128, bias=True)
    (5): LayerNorm((128,), eps=1e-05, elementwise_affine=True)
    (6): GELU(approximate='none')
  )
  (confidence_net): Sequential(
    (0): Linear(in_features=128, out_features=128, bias=True)
    (1): LayerNorm((128,), eps=1e-05, elementwise_affine=True)
    (2): GELU(approximate='none')
    (3): Dropout(p=0.2, inplace=False)
    (4): Linear(in_features=128, out_features=1, bias=True)
    (5): Sigmoid()
  )
)
2025-01-23 18:58:21,368 - INFO - Evaluating test-time compute performance...
2025-01-23 18:58:21,372 - INFO - 
Processing fold 1/5
2025-01-23 18:58:21,382 - INFO - Created model: TestTimeTransformer(
  (spectral_embedding): Sequential(
    (0): Linear(in_features=2080, out_features=256, bias=True)
    (1): LayerNorm((256,), eps=1e-05, elementwise_affine=True)
    (2): GELU(approximate='none')
    (3): Dropout(p=0.2, inplace=False)
    (4): Linear(in_features=256, out_features=128, bias=True)
    (5): LayerNorm((128,), eps=1e-05, elementwise_affine=True)
    (6): GELU(approximate='none')
  )
  (attention_layers): ModuleList(
    (0-3): 4 x MultiHeadAttention(
      (qkv): Linear(in_features=128, out_features=384, bias=True)
      (fc_out): Linear(in_features=128, out_features=128, bias=True)
    )
  )
  (feed_forward): Sequential(
    (0): Linear(in_features=128, out_features=512, bias=True)
    (1): GELU(approximate='none')
    (2): Dropout(p=0.2, inplace=False)
    (3): Linear(in_features=512, out_features=128, bias=True)
  )
  (layer_norms): ModuleList(
    (0-7): 8 x LayerNorm((128,), eps=1e-05, elementwise_affine=True)
  )
  (dropout): Dropout(p=0.2, inplace=False)
  (fc_out): Linear(in_features=128, out_features=7, bias=True)
  (prm_encoder): Sequential(
    (0): Linear(in_features=128, out_features=256, bias=True)
    (1): LayerNorm((256,), eps=1e-05, elementwise_affine=True)
    (2): GELU(approximate='none')
    (3): Dropout(p=0.2, inplace=False)
    (4): Linear(in_features=256, out_features=128, bias=True)
    (5): LayerNorm((128,), eps=1e-05, elementwise_affine=True)
    (6): GELU(approximate='none')
  )
  (confidence_net): Sequential(
    (0): Linear(in_features=128, out_features=128, bias=True)
    (1): LayerNorm((128,), eps=1e-05, elementwise_affine=True)
    (2): GELU(approximate='none')
    (3): Dropout(p=0.2, inplace=False)
    (4): Linear(in_features=128, out_features=1, bias=True)
    (5): Sigmoid()
  )
)
2025-01-23 18:58:22,882 - INFO - Training base model for fold 1
2025-01-23 18:58:22,882 - INFO - Training model with single train/val split (80/20)
2025-01-23 18:58:22,885 - INFO - Training set size: 66
2025-01-23 18:58:22,886 - INFO - Validation set size: 34
2025-01-23 18:58:23,095 - INFO - Epoch 1: New best validation accuracy: 0.1429
…
2025-01-23 18:59:00,536 - INFO - accuracy: 0.3077
2025-01-23 18:59:00,537 - INFO - precision: 0.3048
2025-01-23 18:59:00,537 - INFO - recall: 0.3214
2025-01-23 18:59:00,537 - INFO - f1: 0.2714
2025-01-23 18:59:00,537 - INFO - 
Test-time compute metrics (monte carlo rollout):
2025-01-23 18:59:00,537 - INFO - accuracy: 0.2692
2025-01-23 18:59:00,537 - INFO - precision: 0.2857
2025-01-23 18:59:00,537 - INFO - recall: 0.2738
2025-01-23 18:59:00,537 - INFO - f1: 0.2585
2025-01-23 18:59:00,537 - INFO - 
Processing fold 2/5
2025-01-23 18:59:00,548 - INFO - Created model: TestTimeTransformer(
  (spectral_embedding): Sequential(
    (0): Linear(in_features=2080, out_features=256, bias=True)
    (1): LayerNorm((256,), eps=1e-05, elementwise_affine=True)
    (2): GELU(approximate='none')
    (3): Dropout(p=0.2, inplace=False)
    (4): Linear(in_features=256, out_features=128, bias=True)
    (5): LayerNorm((128,), eps=1e-05, elementwise_affine=True)
    (6): GELU(approximate='none')
  )
  (attention_layers): ModuleList(
    (0-3): 4 x MultiHeadAttention(
      (qkv): Linear(in_features=128, out_features=384, bias=True)
      (fc_out): Linear(in_features=128, out_features=128, bias=True)
    )
  )
  (feed_forward): Sequential(
    (0): Linear(in_features=128, out_features=512, bias=True)
    (1): GELU(approximate='none')
    (2): Dropout(p=0.2, inplace=False)
    (3): Linear(in_features=512, out_features=128, bias=True)
  )
  (layer_norms): ModuleList(
    (0-7): 8 x LayerNorm((128,), eps=1e-05, elementwise_affine=True)
  )
  (dropout): Dropout(p=0.2, inplace=False)
  (fc_out): Linear(in_features=128, out_features=7, bias=True)
  (prm_encoder): Sequential(
    (0): Linear(in_features=128, out_features=256, bias=True)
    (1): LayerNorm((256,), eps=1e-05, elementwise_affine=True)
    (2): GELU(approximate='none')
    (3): Dropout(p=0.2, inplace=False)
    (4): Linear(in_features=256, out_features=128, bias=True)
    (5): LayerNorm((128,), eps=1e-05, elementwise_affine=True)
    (6): GELU(approximate='none')
  )
  (confidence_net): Sequential(
    (0): Linear(in_features=128, out_features=128, bias=True)
    (1): LayerNorm((128,), eps=1e-05, elementwise_affine=True)
    (2): GELU(approximate='none')
    (3): Dropout(p=0.2, inplace=False)
    (4): Linear(in_features=128, out_features=1, bias=True)
    (5): Sigmoid()
  )
)
2025-01-23 18:59:00,551 - INFO - Training base model for fold 2
2025-01-23 18:59:00,551 - INFO - Training model with single train/val split (80/20)
2025-01-23 18:59:00,554 - INFO - Training set size: 67
2025-01-23 18:59:00,554 - INFO - Validation set size: 34
2025-01-23 18:59:00,593 - INFO - Epoch 1: New best validation accuracy: 0.1714
…
