…
2024-11-12 23:07:15,548 - INFO - Starting main training phase
2024-11-12 23:07:15,548 - INFO - Loading dataset: species
2024-11-12 23:07:15,548 - INFO - Loading data from: /home/woodj/Desktop/fishy-business/data/REIMS.xlsx
2024-11-12 23:07:21,366 - INFO - Loaded data with shape: (306, 2081)
2024-11-12 23:07:21,370 - INFO - Filtered data shape: (108, 2081)
2024-11-12 23:07:21,371 - INFO - Dataset shape after filtering: (108, 2081)
2024-11-12 23:07:21,372 - INFO - Features shape: (108, 2080), Labels shape: (108, 2)
2024-11-12 23:07:21,651 - INFO - Created model: WaveNet(
  (causal_conv): CausalConv1d(
    (conv): Conv1d(1, 32, kernel_size=(2,), stride=(1,), padding=(1,))
  )
  (blocks): ModuleList(
    (0): ResidualBlock(
      (dilated_conv): CausalConv1d(
        (conv): Conv1d(32, 64, kernel_size=(2,), stride=(1,), padding=(1,))
      )
      (conv_1x1): Conv1d(32, 32, kernel_size=(1,), stride=(1,))
      (dropout): Dropout(p=0.2, inplace=False)
    )
    (1): ResidualBlock(
      (dilated_conv): CausalConv1d(
        (conv): Conv1d(32, 64, kernel_size=(2,), stride=(1,), padding=(2,), dilation=(2,))
      )
      (conv_1x1): Conv1d(32, 32, kernel_size=(1,), stride=(1,))
      (dropout): Dropout(p=0.2, inplace=False)
    )
    (2): ResidualBlock(
      (dilated_conv): CausalConv1d(
        (conv): Conv1d(32, 64, kernel_size=(2,), stride=(1,), padding=(4,), dilation=(4,))
      )
      (conv_1x1): Conv1d(32, 32, kernel_size=(1,), stride=(1,))
      (dropout): Dropout(p=0.2, inplace=False)
    )
    (3): ResidualBlock(
      (dilated_conv): CausalConv1d(
        (conv): Conv1d(32, 64, kernel_size=(2,), stride=(1,), padding=(8,), dilation=(8,))
      )
      (conv_1x1): Conv1d(32, 32, kernel_size=(1,), stride=(1,))
      (dropout): Dropout(p=0.2, inplace=False)
    )
    (4): ResidualBlock(
      (dilated_conv): CausalConv1d(
        (conv): Conv1d(32, 64, kernel_size=(2,), stride=(1,), padding=(16,), dilation=(16,))
      )
      (conv_1x1): Conv1d(32, 32, kernel_size=(1,), stride=(1,))
      (dropout): Dropout(p=0.2, inplace=False)
    )
    (5): ResidualBlock(
      (dilated_conv): CausalConv1d(
        (conv): Conv1d(32, 64, kernel_size=(2,), stride=(1,), padding=(32,), dilation=(32,))
      )
      (conv_1x1): Conv1d(32, 32, kernel_size=(1,), stride=(1,))
      (dropout): Dropout(p=0.2, inplace=False)
    )
    (6): ResidualBlock(
      (dilated_conv): CausalConv1d(
        (conv): Conv1d(32, 64, kernel_size=(2,), stride=(1,), padding=(64,), dilation=(64,))
      )
      (conv_1x1): Conv1d(32, 32, kernel_size=(1,), stride=(1,))
      (dropout): Dropout(p=0.2, inplace=False)
    )
    (7): ResidualBlock(
      (dilated_conv): CausalConv1d(
        (conv): Conv1d(32, 64, kernel_size=(2,), stride=(1,), padding=(128,), dilation=(128,))
      )
      (conv_1x1): Conv1d(32, 32, kernel_size=(1,), stride=(1,))
      (dropout): Dropout(p=0.2, inplace=False)
    )
    (8): ResidualBlock(
      (dilated_conv): CausalConv1d(
        (conv): Conv1d(32, 64, kernel_size=(2,), stride=(1,), padding=(1,))
      )
      (conv_1x1): Conv1d(32, 32, kernel_size=(1,), stride=(1,))
      (dropout): Dropout(p=0.2, inplace=False)
    )
    (9): ResidualBlock(
      (dilated_conv): CausalConv1d(
        (conv): Conv1d(32, 64, kernel_size=(2,), stride=(1,), padding=(2,), dilation=(2,))
      )
      (conv_1x1): Conv1d(32, 32, kernel_size=(1,), stride=(1,))
      (dropout): Dropout(p=0.2, inplace=False)
    )
    (10): ResidualBlock(
      (dilated_conv): CausalConv1d(
        (conv): Conv1d(32, 64, kernel_size=(2,), stride=(1,), padding=(4,), dilation=(4,))
      )
      (conv_1x1): Conv1d(32, 32, kernel_size=(1,), stride=(1,))
      (dropout): Dropout(p=0.2, inplace=False)
    )
    (11): ResidualBlock(
      (dilated_conv): CausalConv1d(
        (conv): Conv1d(32, 64, kernel_size=(2,), stride=(1,), padding=(8,), dilation=(8,))
      )
      (conv_1x1): Conv1d(32, 32, kernel_size=(1,), stride=(1,))
      (dropout): Dropout(p=0.2, inplace=False)
    )
    (12): ResidualBlock(
      (dilated_conv): CausalConv1d(
        (conv): Conv1d(32, 64, kernel_size=(2,), stride=(1,), padding=(16,), dilation=(16,))
      )
      (conv_1x1): Conv1d(32, 32, kernel_size=(1,), stride=(1,))
      (dropout): Dropout(p=0.2, inplace=False)
    )
    (13): ResidualBlock(
      (dilated_conv): CausalConv1d(
        (conv): Conv1d(32, 64, kernel_size=(2,), stride=(1,), padding=(32,), dilation=(32,))
      )
      (conv_1x1): Conv1d(32, 32, kernel_size=(1,), stride=(1,))
      (dropout): Dropout(p=0.2, inplace=False)
    )
    (14): ResidualBlock(
      (dilated_conv): CausalConv1d(
        (conv): Conv1d(32, 64, kernel_size=(2,), stride=(1,), padding=(64,), dilation=(64,))
      )
      (conv_1x1): Conv1d(32, 32, kernel_size=(1,), stride=(1,))
      (dropout): Dropout(p=0.2, inplace=False)
    )
    (15): ResidualBlock(
      (dilated_conv): CausalConv1d(
        (conv): Conv1d(32, 64, kernel_size=(2,), stride=(1,), padding=(128,), dilation=(128,))
      )
      (conv_1x1): Conv1d(32, 32, kernel_size=(1,), stride=(1,))
      (dropout): Dropout(p=0.2, inplace=False)
    )
    (16): ResidualBlock(
      (dilated_conv): CausalConv1d(
        (conv): Conv1d(32, 64, kernel_size=(2,), stride=(1,), padding=(1,))
      )
      (conv_1x1): Conv1d(32, 32, kernel_size=(1,), stride=(1,))
      (dropout): Dropout(p=0.2, inplace=False)
    )
    (17): ResidualBlock(
      (dilated_conv): CausalConv1d(
        (conv): Conv1d(32, 64, kernel_size=(2,), stride=(1,), padding=(2,), dilation=(2,))
      )
      (conv_1x1): Conv1d(32, 32, kernel_size=(1,), stride=(1,))
      (dropout): Dropout(p=0.2, inplace=False)
    )
    (18): ResidualBlock(
      (dilated_conv): CausalConv1d(
        (conv): Conv1d(32, 64, kernel_size=(2,), stride=(1,), padding=(4,), dilation=(4,))
      )
      (conv_1x1): Conv1d(32, 32, kernel_size=(1,), stride=(1,))
      (dropout): Dropout(p=0.2, inplace=False)
    )
    (19): ResidualBlock(
      (dilated_conv): CausalConv1d(
        (conv): Conv1d(32, 64, kernel_size=(2,), stride=(1,), padding=(8,), dilation=(8,))
      )
      (conv_1x1): Conv1d(32, 32, kernel_size=(1,), stride=(1,))
      (dropout): Dropout(p=0.2, inplace=False)
    )
    (20): ResidualBlock(
      (dilated_conv): CausalConv1d(
        (conv): Conv1d(32, 64, kernel_size=(2,), stride=(1,), padding=(16,), dilation=(16,))
      )
      (conv_1x1): Conv1d(32, 32, kernel_size=(1,), stride=(1,))
      (dropout): Dropout(p=0.2, inplace=False)
    )
    (21): ResidualBlock(
      (dilated_conv): CausalConv1d(
        (conv): Conv1d(32, 64, kernel_size=(2,), stride=(1,), padding=(32,), dilation=(32,))
      )
      (conv_1x1): Conv1d(32, 32, kernel_size=(1,), stride=(1,))
      (dropout): Dropout(p=0.2, inplace=False)
    )
    (22): ResidualBlock(
      (dilated_conv): CausalConv1d(
        (conv): Conv1d(32, 64, kernel_size=(2,), stride=(1,), padding=(64,), dilation=(64,))
      )
      (conv_1x1): Conv1d(32, 32, kernel_size=(1,), stride=(1,))
      (dropout): Dropout(p=0.2, inplace=False)
    )
    (23): ResidualBlock(
      (dilated_conv): CausalConv1d(
        (conv): Conv1d(32, 64, kernel_size=(2,), stride=(1,), padding=(128,), dilation=(128,))
      )
      (conv_1x1): Conv1d(32, 32, kernel_size=(1,), stride=(1,))
      (dropout): Dropout(p=0.2, inplace=False)
    )
  )
  (adaptive_pool): AdaptiveMaxPool1d(output_size=4)
  (final_conv): Conv1d(32, 32, kernel_size=(1,), stride=(1,))
  (relu): ReLU()
  (fc_layers): Sequential(
    (0): Linear(in_features=128, out_features=64, bias=True)
    (1): ReLU()
    (2): Dropout(p=0.2, inplace=False)
    (3): Linear(in_features=64, out_features=2, bias=True)
  )
)
2024-11-12 23:07:22,208 - INFO - Starting k-fold cross validation training
2024-11-12 23:07:22,225 - INFO - 
Starting Fold 1/5
2024-11-12 23:07:22,893 - INFO - Epoch 1: New best validation accuracy: 0.5000
2024-11-12 23:07:23,855 - INFO - Epoch 5
2024-11-12 23:07:23,855 - INFO - Train Loss: 0.6899
2024-11-12 23:07:23,855 - INFO - Val Loss: 0.6864
2024-11-12 23:07:23,855 - INFO - Current Val Accuracy: 0.5000
…
