…
2025-01-11 00:36:56,446 - INFO - Starting main training phase
2025-01-11 00:36:56,446 - INFO - Loading dataset: part
2025-01-11 00:36:56,447 - INFO - Loading data from: /home/woodj/Desktop/fishy-business/data/REIMS.xlsx
2025-01-11 00:37:03,014 - INFO - Loaded data with shape: (306, 2081)
2025-01-11 00:37:03,020 - INFO - Filtered data shape: (36, 2081)
2025-01-11 00:37:03,020 - INFO - Dataset shape after filtering: (36, 2081)
2025-01-11 00:37:03,021 - INFO - Features shape: (36, 2080), Labels shape: (36, 7)
2025-01-11 00:37:03,516 - INFO - Created model: TestTimeTransformer(
  (attention_layers): ModuleList(
    (0-3): 4 x MultiHeadAttention(
      (qkv): Linear(in_features=2080, out_features=6240, bias=True)
      (fc_out): Linear(in_features=2080, out_features=2080, bias=True)
    )
  )
  (feed_forward): Sequential(
    (0): Linear(in_features=2080, out_features=128, bias=True)
    (1): GELU(approximate='none')
    (2): Dropout(p=0.2, inplace=False)
    (3): Linear(in_features=128, out_features=2080, bias=True)
  )
  (layer_norm1): LayerNorm((2080,), eps=1e-05, elementwise_affine=True)
  (layer_norm2): LayerNorm((2080,), eps=1e-05, elementwise_affine=True)
  (dropout): Dropout(p=0.2, inplace=False)
  (fc_out): Linear(in_features=2080, out_features=7, bias=True)
  (process_reward_model): SimplifiedPRM(
    (net): Sequential(
      (0): Linear(in_features=7, out_features=128, bias=True)
      (1): LayerNorm((128,), eps=1e-05, elementwise_affine=True)
      (2): ReLU()
      (3): Linear(in_features=128, out_features=128, bias=True)
      (4): LayerNorm((128,), eps=1e-05, elementwise_affine=True)
      (5): ReLU()
      (6): Linear(in_features=128, out_features=1, bias=True)
      (7): Sigmoid()
    )
  )
  (refinement_network): Sequential(
    (0): Linear(in_features=14, out_features=128, bias=True)
    (1): LayerNorm((128,), eps=1e-05, elementwise_affine=True)
    (2): ReLU()
    (3): Linear(in_features=128, out_features=7, bias=True)
  )
)
2025-01-11 00:37:04,483 - INFO - Starting k-fold cross validation training
2025-01-11 00:37:04,494 - INFO - 
Starting Fold 1/3
2025-01-11 00:37:04,676 - INFO - Epoch 1: New best validation accuracy: 0.5714
2025-01-11 00:37:04,772 - INFO - Epoch 3: New best validation accuracy: 0.7143
2025-01-11 00:37:04,864 - INFO - Epoch 5
2025-01-11 00:37:04,865 - INFO - Train Loss: 17.9785
…
