…
2025-05-22 15:12:42,666 - INFO - Starting main training phase
2025-05-22 15:12:42,666 - INFO - Loading dataset: part
2025-05-22 15:12:42,666 - INFO - Loading data from: /vol/ecrg-solar/woodj4/fishy-business/data/REIMS.xlsx
2025-05-22 15:12:53,959 - INFO - Loaded data with shape: (306, 2081)
2025-05-22 15:12:53,966 - INFO - Filtered data shape: (36, 2081)
2025-05-22 15:12:53,966 - INFO - Dataset shape after filtering: (36, 2081)
2025-05-22 15:12:53,969 - INFO - Features shape: (36, 2080), Labels shape: (36, 7)
2025-05-22 15:12:53,995 - INFO - Created model: Diffusion(
  (time_mlp): Sequential(
    (0): SinusoidalPositionEmbeddings()
    (1): Linear(in_features=64, out_features=128, bias=True)
    (2): GELU(approximate='none')
    (3): Linear(in_features=128, out_features=64, bias=True)
  )
  (init_conv): Conv1d(1, 128, kernel_size=(1,), stride=(1,))
  (down1): Block(
    (time_mlp): Linear(in_features=64, out_features=128, bias=True)
    (block1): Sequential(
      (0): Conv1d(128, 128, kernel_size=(3,), stride=(1,), padding=(1,))
      (1): GroupNorm(1, 128, eps=1e-05, affine=True)
      (2): GELU(approximate='none')
    )
    (block2): Sequential(
      (0): Conv1d(128, 128, kernel_size=(3,), stride=(1,), padding=(1,))
      (1): GroupNorm(1, 128, eps=1e-05, affine=True)
      (2): GELU(approximate='none')
    )
    (shortcut): Identity()
  )
  (down2): Block(
    (time_mlp): Linear(in_features=64, out_features=256, bias=True)
    (block1): Sequential(
      (0): Conv1d(128, 256, kernel_size=(3,), stride=(1,), padding=(1,))
      (1): GroupNorm(1, 256, eps=1e-05, affine=True)
      (2): GELU(approximate='none')
    )
    (block2): Sequential(
      (0): Conv1d(256, 256, kernel_size=(3,), stride=(1,), padding=(1,))
      (1): GroupNorm(1, 256, eps=1e-05, affine=True)
      (2): GELU(approximate='none')
    )
    (shortcut): Conv1d(128, 256, kernel_size=(1,), stride=(1,))
  )
  (down3): Block(
    (time_mlp): Linear(in_features=64, out_features=256, bias=True)
    (block1): Sequential(
      (0): Conv1d(256, 256, kernel_size=(3,), stride=(1,), padding=(1,))
      (1): GroupNorm(1, 256, eps=1e-05, affine=True)
      (2): GELU(approximate='none')
    )
    (block2): Sequential(
      (0): Conv1d(256, 256, kernel_size=(3,), stride=(1,), padding=(1,))
      (1): GroupNorm(1, 256, eps=1e-05, affine=True)
      (2): GELU(approximate='none')
    )
    (shortcut): Identity()
  )
  (mid1): Block(
    (time_mlp): Linear(in_features=64, out_features=256, bias=True)
    (block1): Sequential(
      (0): Conv1d(256, 256, kernel_size=(3,), stride=(1,), padding=(1,))
      (1): GroupNorm(1, 256, eps=1e-05, affine=True)
      (2): GELU(approximate='none')
    )
    (block2): Sequential(
      (0): Conv1d(256, 256, kernel_size=(3,), stride=(1,), padding=(1,))
      (1): GroupNorm(1, 256, eps=1e-05, affine=True)
      (2): GELU(approximate='none')
    )
    (shortcut): Identity()
  )
  (mid2): Block(
    (time_mlp): Linear(in_features=64, out_features=256, bias=True)
    (block1): Sequential(
      (0): Conv1d(256, 256, kernel_size=(3,), stride=(1,), padding=(1,))
      (1): GroupNorm(1, 256, eps=1e-05, affine=True)
      (2): GELU(approximate='none')
    )
    (block2): Sequential(
      (0): Conv1d(256, 256, kernel_size=(3,), stride=(1,), padding=(1,))
      (1): GroupNorm(1, 256, eps=1e-05, affine=True)
      (2): GELU(approximate='none')
    )
    (shortcut): Identity()
  )
  (up1): Block(
    (time_mlp): Linear(in_features=64, out_features=256, bias=True)
    (block1): Sequential(
      (0): Conv1d(256, 256, kernel_size=(3,), stride=(1,), padding=(1,))
      (1): GroupNorm(1, 256, eps=1e-05, affine=True)
      (2): GELU(approximate='none')
    )
    (block2): Sequential(
      (0): Conv1d(256, 256, kernel_size=(3,), stride=(1,), padding=(1,))
      (1): GroupNorm(1, 256, eps=1e-05, affine=True)
      (2): GELU(approximate='none')
    )
    (shortcut): Identity()
  )
  (up2): Block(
    (time_mlp): Linear(in_features=64, out_features=128, bias=True)
    (block1): Sequential(
      (0): Conv1d(256, 128, kernel_size=(3,), stride=(1,), padding=(1,))
      (1): GroupNorm(1, 128, eps=1e-05, affine=True)
      (2): GELU(approximate='none')
    )
    (block2): Sequential(
      (0): Conv1d(128, 128, kernel_size=(3,), stride=(1,), padding=(1,))
      (1): GroupNorm(1, 128, eps=1e-05, affine=True)
      (2): GELU(approximate='none')
    )
    (shortcut): Conv1d(256, 128, kernel_size=(1,), stride=(1,))
  )
  (up3): Block(
    (time_mlp): Linear(in_features=64, out_features=128, bias=True)
    (block1): Sequential(
      (0): Conv1d(128, 128, kernel_size=(3,), stride=(1,), padding=(1,))
      (1): GroupNorm(1, 128, eps=1e-05, affine=True)
      (2): GELU(approximate='none')
    )
    (block2): Sequential(
      (0): Conv1d(128, 128, kernel_size=(3,), stride=(1,), padding=(1,))
      (1): GroupNorm(1, 128, eps=1e-05, affine=True)
      (2): GELU(approximate='none')
    )
    (shortcut): Identity()
  )
  (final_conv): Conv1d(128, 1, kernel_size=(1,), stride=(1,))
  (classifier): Sequential(
    (0): AdaptiveAvgPool1d(output_size=1)
    (1): Flatten(start_dim=1, end_dim=-1)
    (2): Linear(in_features=1, out_features=7, bias=True)
  )
)
2025-05-22 15:12:56,031 - INFO - Starting 30 independent runs of 3-fold cross validation
2025-05-22 15:12:56,043 - INFO - 
Starting Run 1/30
2025-05-22 15:12:56,063 - INFO - Run 1, Fold 1/3
2025-05-22 15:12:56,746 - INFO - Epoch 1: New best validation accuracy: 0.1429
2025-05-22 15:12:57,095 - INFO - Epoch 5
2025-05-22 15:12:57,095 - INFO - Train Loss: 2.7911
…
