…
2024-12-02 18:50:05,149 - INFO - Loading data from: /vol/ecrg-solar/woodj4/fishy-business/data/REIMS.xlsx
2024-12-02 18:50:15,280 - INFO - Loaded data with shape: (306, 2081)
2024-12-02 18:50:15,283 - INFO - Filtered data shape: (72, 2081)
2024-12-02 18:50:15,283 - INFO - Dataset shape after filtering: (72, 2081)
2024-12-02 18:50:15,284 - INFO - Features shape: (72, 2080), Labels shape: (72, 24)
2024-12-02 18:50:15,520 - INFO - Applying siamese dataset with 50 pairs per sample...
2024-12-02 18:50:15,520 - INFO - Dataset size increased from 72 to 3600 samples
2024-12-02 18:50:15,755 - INFO - Created model: VAE(
  (encoder): Sequential(
    (0): Linear(in_features=2080, out_features=512, bias=True)
    (1): ReLU()
    (2): Dropout(p=0.2, inplace=False)
    (3): Linear(in_features=512, out_features=256, bias=True)
    (4): ReLU()
    (5): Dropout(p=0.2, inplace=False)
    (6): Linear(in_features=256, out_features=128, bias=True)
    (7): ReLU()
    (8): Dropout(p=0.2, inplace=False)
  )
  (fc_mu): Linear(in_features=128, out_features=128, bias=True)
  (fc_logvar): Linear(in_features=128, out_features=128, bias=True)
  (decoder): Sequential(
    (0): Linear(in_features=130, out_features=128, bias=True)
    (1): ReLU()
    (2): Dropout(p=0.2, inplace=False)
    (3): Linear(in_features=128, out_features=256, bias=True)
    (4): ReLU()
    (5): Dropout(p=0.2, inplace=False)
    (6): Linear(in_features=256, out_features=512, bias=True)
    (7): ReLU()
    (8): Dropout(p=0.2, inplace=False)
    (9): Linear(in_features=512, out_features=2080, bias=True)
    (10): Sigmoid()
    (11): Dropout(p=0.2, inplace=False)
  )
  (classifier): Sequential(
    (0): Linear(in_features=128, out_features=64, bias=True)
    (1): ReLU()
    (2): Linear(in_features=64, out_features=2, bias=True)
  )
)
2024-12-02 18:50:16,004 - INFO - Starting k-fold cross validation training
2024-12-02 18:50:16,015 - INFO - 
Starting Fold 1/5
2024-12-02 18:50:16,305 - INFO - Epoch 1: New best validation accuracy: 0.7602
2024-12-02 18:50:16,466 - INFO - Epoch 2: New best validation accuracy: 0.9096
2024-12-02 18:50:16,614 - INFO - Epoch 3: New best validation accuracy: 0.9217
…
