…
2025-01-09 19:15:56,325 - INFO - Loading dataset: part
2025-01-09 19:15:56,325 - INFO - Loading data from: /vol/ecrg-solar/woodj4/fishy-business/data/REIMS.xlsx
2025-01-09 19:16:06,334 - INFO - Loaded data with shape: (306, 2081)
2025-01-09 19:16:06,340 - INFO - Filtered data shape: (36, 2081)
2025-01-09 19:16:06,340 - INFO - Dataset shape after filtering: (36, 2081)
2025-01-09 19:16:06,342 - INFO - Features shape: (36, 2080), Labels shape: (36, 7)
2025-01-09 19:16:06,707 - INFO - Created model: TestTimeTransformer(
  (attention_layers): ModuleList(
    (0-3): 4 x MultiHeadAttention(
      (qkv): Linear(in_features=2080, out_features=6240, bias=True)
      (fc_out): Linear(in_features=2080, out_features=2080, bias=True)
    )
  )
  (feed_forward): Sequential(
    (0): Linear(in_features=2080, out_features=128, bias=True)
    (1): GELU(approximate='none')
    (2): Dropout(p=0.2, inplace=False)
    (3): Linear(in_features=128, out_features=2080, bias=True)
  )
  (layer_norm1): LayerNorm((2080,), eps=1e-05, elementwise_affine=True)
  (layer_norm2): LayerNorm((2080,), eps=1e-05, elementwise_affine=True)
  (dropout): Dropout(p=0.2, inplace=False)
  (fc_out): Linear(in_features=2080, out_features=7, bias=True)
  (process_reward_model): EnhancedPRM(
    (input_proj): Linear(in_features=7, out_features=256, bias=True)
    (dropout): Dropout(p=0.2, inplace=False)
    (activation): GELU(approximate='none')
    (blocks): ModuleList(
      (0-2): 3 x PRMBlock(
        (layer1): Linear(in_features=256, out_features=256, bias=True)
        (layer2): Linear(in_features=256, out_features=256, bias=True)
        (norm1): LayerNorm((256,), eps=1e-05, elementwise_affine=True)
        (norm2): LayerNorm((256,), eps=1e-05, elementwise_affine=True)
        (activation): GELU(approximate='none')
        (dropout): Dropout(p=0.2, inplace=False)
      )
    )
    (attention): MultiheadAttention(
      (out_proj): NonDynamicallyQuantizableLinear(in_features=256, out_features=256, bias=True)
    )
    (norm): LayerNorm((256,), eps=1e-05, elementwise_affine=True)
    (out_proj1): Linear(in_features=256, out_features=128, bias=True)
    (out_proj2): Linear(in_features=128, out_features=64, bias=True)
    (out_proj3): Linear(in_features=64, out_features=1, bias=True)
  )
  (refinement_network): Sequential(
    (0): Linear(in_features=14, out_features=128, bias=True)
    (1): GELU(approximate='none')
    (2): Linear(in_features=128, out_features=7, bias=True)
  )
)
2025-01-09 19:16:07,170 - INFO - Starting k-fold cross validation training
2025-01-09 19:16:07,179 - INFO - 
Starting Fold 1/3
2025-01-09 19:16:07,359 - INFO - Epoch 1: New best validation accuracy: 0.5714
2025-01-09 19:16:07,507 - INFO - Epoch 5
2025-01-09 19:16:07,507 - INFO - Train Loss: 13.4127
2025-01-09 19:16:07,508 - INFO - Val Loss: 13.4650
…
