…
2025-01-10 01:13:46,479 - INFO - Loading dataset: cross-species
2025-01-10 01:13:46,479 - INFO - Loading data from: /home/woodj/Desktop/fishy-business/data/REIMS.xlsx
2025-01-10 01:13:52,552 - INFO - Loaded data with shape: (306, 2081)
2025-01-10 01:13:52,555 - INFO - Filtered data shape: (153, 2081)
2025-01-10 01:13:52,556 - INFO - Dataset shape after filtering: (153, 2081)
2025-01-10 01:13:52,557 - INFO - Features shape: (153, 2080), Labels shape: (153, 3)
2025-01-10 01:13:52,858 - INFO - Created model: TestTimeTransformer(
  (attention_layers): ModuleList(
    (0-3): 4 x MultiHeadAttention(
      (qkv): Linear(in_features=2080, out_features=6240, bias=True)
      (fc_out): Linear(in_features=2080, out_features=2080, bias=True)
    )
  )
  (feed_forward): Sequential(
    (0): Linear(in_features=2080, out_features=128, bias=True)
    (1): GELU(approximate='none')
    (2): Dropout(p=0.2, inplace=False)
    (3): Linear(in_features=128, out_features=2080, bias=True)
  )
  (layer_norm1): LayerNorm((2080,), eps=1e-05, elementwise_affine=True)
  (layer_norm2): LayerNorm((2080,), eps=1e-05, elementwise_affine=True)
  (dropout): Dropout(p=0.2, inplace=False)
  (fc_out): Linear(in_features=2080, out_features=3, bias=True)
  (process_reward_model): SimplifiedPRM(
    (net): Sequential(
      (0): Linear(in_features=3, out_features=128, bias=True)
      (1): LayerNorm((128,), eps=1e-05, elementwise_affine=True)
      (2): ReLU()
      (3): Linear(in_features=128, out_features=128, bias=True)
      (4): LayerNorm((128,), eps=1e-05, elementwise_affine=True)
      (5): ReLU()
      (6): Linear(in_features=128, out_features=1, bias=True)
      (7): Sigmoid()
    )
  )
  (refinement_network): Sequential(
    (0): Linear(in_features=6, out_features=128, bias=True)
    (1): LayerNorm((128,), eps=1e-05, elementwise_affine=True)
    (2): ReLU()
    (3): Linear(in_features=128, out_features=3, bias=True)
  )
)
2025-01-10 01:13:53,768 - INFO - Starting k-fold cross validation training
2025-01-10 01:13:53,781 - INFO - 
Starting Fold 1/5
2025-01-10 01:13:53,964 - INFO - Epoch 1: New best validation accuracy: 0.5148
2025-01-10 01:13:54,169 - INFO - Epoch 5
2025-01-10 01:13:54,169 - INFO - Train Loss: 26.7748
2025-01-10 01:13:54,169 - INFO - Val Loss: 34.1094
…
