…
2025-01-20 00:07:04,545 - INFO - Starting main training phase
2025-01-20 00:07:04,545 - INFO - Loading dataset: part
2025-01-20 00:07:04,545 - INFO - Loading data from: /home/woodj/Desktop/fishy-business/data/REIMS.xlsx
2025-01-20 00:07:15,339 - INFO - Loaded data with shape: (306, 2081)
2025-01-20 00:07:15,348 - INFO - Filtered data shape: (36, 2081)
2025-01-20 00:07:15,348 - INFO - Dataset shape after filtering: (36, 2081)
2025-01-20 00:07:15,350 - INFO - Features shape: (36, 2080), Labels shape: (36, 7)
2025-01-20 00:07:16,141 - INFO - Created model: TestTimeTransformer(
  (attention_layers): ModuleList(
    (0-3): 4 x MultiHeadAttention(
      (qkv): Linear(in_features=2080, out_features=6240, bias=True)
      (fc_out): Linear(in_features=2080, out_features=2080, bias=True)
    )
  )
  (feed_forward): Sequential(
    (0): Linear(in_features=2080, out_features=128, bias=True)
    (1): GELU(approximate='none')
    (2): Dropout(p=0.2, inplace=False)
    (3): Linear(in_features=128, out_features=2080, bias=True)
  )
  (layer_norm1): LayerNorm((2080,), eps=1e-05, elementwise_affine=True)
  (layer_norm2): LayerNorm((2080,), eps=1e-05, elementwise_affine=True)
  (dropout): Dropout(p=0.2, inplace=False)
  (fc_out): Linear(in_features=2080, out_features=7, bias=True)
  (process_reward_model): ImprovedPRM(
    (feature_net): Sequential(
      (0): Linear(in_features=7, out_features=128, bias=True)
      (1): LayerNorm((128,), eps=1e-05, elementwise_affine=True)
      (2): GELU(approximate='none')
      (3): Dropout(p=0.1, inplace=False)
      (4): Linear(in_features=128, out_features=128, bias=True)
      (5): LayerNorm((128,), eps=1e-05, elementwise_affine=True)
      (6): GELU(approximate='none')
      (7): Dropout(p=0.1, inplace=False)
    )
    (confidence_net): ModuleDict(
      (aleatoric): Sequential(
        (0): Linear(in_features=128, out_features=128, bias=True)
        (1): LayerNorm((128,), eps=1e-05, elementwise_affine=True)
        (2): GELU(approximate='none')
        (3): Dropout(p=0.1, inplace=False)
        (4): Linear(in_features=128, out_features=1, bias=True)
      )
      (epistemic): Sequential(
        (0): Linear(in_features=128, out_features=128, bias=True)
        (1): LayerNorm((128,), eps=1e-05, elementwise_affine=True)
        (2): GELU(approximate='none')
        (3): Dropout(p=0.1, inplace=False)
        (4): Linear(in_features=128, out_features=1, bias=True)
      )
    )
  )
)
2025-01-20 00:07:16,142 - INFO - Evaluating test-time compute performance...
2025-01-20 00:07:16,144 - INFO - 
Processing fold 1/3
2025-01-20 00:07:16,900 - INFO - Created model: TestTimeTransformer(
  (attention_layers): ModuleList(
    (0-3): 4 x MultiHeadAttention(
      (qkv): Linear(in_features=2080, out_features=6240, bias=True)
      (fc_out): Linear(in_features=2080, out_features=2080, bias=True)
    )
  )
  (feed_forward): Sequential(
    (0): Linear(in_features=2080, out_features=128, bias=True)
    (1): GELU(approximate='none')
    (2): Dropout(p=0.2, inplace=False)
    (3): Linear(in_features=128, out_features=2080, bias=True)
  )
  (layer_norm1): LayerNorm((2080,), eps=1e-05, elementwise_affine=True)
  (layer_norm2): LayerNorm((2080,), eps=1e-05, elementwise_affine=True)
  (dropout): Dropout(p=0.2, inplace=False)
  (fc_out): Linear(in_features=2080, out_features=7, bias=True)
  (process_reward_model): ImprovedPRM(
    (feature_net): Sequential(
      (0): Linear(in_features=7, out_features=128, bias=True)
      (1): LayerNorm((128,), eps=1e-05, elementwise_affine=True)
      (2): GELU(approximate='none')
      (3): Dropout(p=0.1, inplace=False)
      (4): Linear(in_features=128, out_features=128, bias=True)
      (5): LayerNorm((128,), eps=1e-05, elementwise_affine=True)
      (6): GELU(approximate='none')
      (7): Dropout(p=0.1, inplace=False)
    )
    (confidence_net): ModuleDict(
      (aleatoric): Sequential(
        (0): Linear(in_features=128, out_features=128, bias=True)
        (1): LayerNorm((128,), eps=1e-05, elementwise_affine=True)
        (2): GELU(approximate='none')
        (3): Dropout(p=0.1, inplace=False)
        (4): Linear(in_features=128, out_features=1, bias=True)
      )
      (epistemic): Sequential(
        (0): Linear(in_features=128, out_features=128, bias=True)
        (1): LayerNorm((128,), eps=1e-05, elementwise_affine=True)
        (2): GELU(approximate='none')
        (3): Dropout(p=0.1, inplace=False)
        (4): Linear(in_features=128, out_features=1, bias=True)
      )
    )
  )
)
2025-01-20 00:07:18,118 - INFO - Training base model for fold 1
2025-01-20 00:07:18,118 - INFO - Training model with single train/val split (80/20)
2025-01-20 00:07:18,122 - INFO - Training set size: 16
2025-01-20 00:07:18,122 - INFO - Validation set size: 8
2025-01-20 00:07:19,687 - INFO - Epoch 1: New best validation accuracy: 0.6429
…
2025-01-20 00:09:27,652 - INFO - precision: 0.4143
2025-01-20 00:09:27,652 - INFO - recall: 0.5714
2025-01-20 00:09:27,652 - INFO - f1: 0.4626
2025-01-20 00:09:27,652 - INFO - 
Test-time compute metrics (genetic programming):
2025-01-20 00:09:27,652 - INFO - accuracy: 0.5000
2025-01-20 00:09:27,652 - INFO - precision: 0.4143
2025-01-20 00:09:27,652 - INFO - recall: 0.5714
2025-01-20 00:09:27,652 - INFO - f1: 0.4626
2025-01-20 00:09:27,652 - INFO - 
Processing fold 2/3
2025-01-20 00:09:28,338 - INFO - Created model: TestTimeTransformer(
  (attention_layers): ModuleList(
    (0-3): 4 x MultiHeadAttention(
      (qkv): Linear(in_features=2080, out_features=6240, bias=True)
      (fc_out): Linear(in_features=2080, out_features=2080, bias=True)
    )
  )
  (feed_forward): Sequential(
    (0): Linear(in_features=2080, out_features=128, bias=True)
    (1): GELU(approximate='none')
    (2): Dropout(p=0.2, inplace=False)
    (3): Linear(in_features=128, out_features=2080, bias=True)
  )
  (layer_norm1): LayerNorm((2080,), eps=1e-05, elementwise_affine=True)
  (layer_norm2): LayerNorm((2080,), eps=1e-05, elementwise_affine=True)
  (dropout): Dropout(p=0.2, inplace=False)
  (fc_out): Linear(in_features=2080, out_features=7, bias=True)
  (process_reward_model): ImprovedPRM(
    (feature_net): Sequential(
      (0): Linear(in_features=7, out_features=128, bias=True)
      (1): LayerNorm((128,), eps=1e-05, elementwise_affine=True)
      (2): GELU(approximate='none')
      (3): Dropout(p=0.1, inplace=False)
      (4): Linear(in_features=128, out_features=128, bias=True)
      (5): LayerNorm((128,), eps=1e-05, elementwise_affine=True)
      (6): GELU(approximate='none')
      (7): Dropout(p=0.1, inplace=False)
    )
    (confidence_net): ModuleDict(
      (aleatoric): Sequential(
        (0): Linear(in_features=128, out_features=128, bias=True)
        (1): LayerNorm((128,), eps=1e-05, elementwise_affine=True)
        (2): GELU(approximate='none')
        (3): Dropout(p=0.1, inplace=False)
        (4): Linear(in_features=128, out_features=1, bias=True)
      )
      (epistemic): Sequential(
        (0): Linear(in_features=128, out_features=128, bias=True)
        (1): LayerNorm((128,), eps=1e-05, elementwise_affine=True)
        (2): GELU(approximate='none')
        (3): Dropout(p=0.1, inplace=False)
        (4): Linear(in_features=128, out_features=1, bias=True)
      )
    )
  )
)
2025-01-20 00:09:28,432 - INFO - Training base model for fold 2
2025-01-20 00:09:28,432 - INFO - Training model with single train/val split (80/20)
2025-01-20 00:09:28,434 - INFO - Training set size: 16
2025-01-20 00:09:28,435 - INFO - Validation set size: 8
2025-01-20 00:09:29,676 - INFO - Epoch 1: New best validation accuracy: 0.5714
…
