…
2025-04-14 11:58:26,306 - INFO - Loading dataset: part
2025-04-14 11:58:26,306 - INFO - Loading data from: /vol/ecrg-solar/woodj4/fishy-business/data/REIMS.xlsx
2025-04-14 11:58:36,616 - INFO - Loaded data with shape: (306, 2081)
2025-04-14 11:58:36,623 - INFO - Filtered data shape: (36, 2081)
2025-04-14 11:58:36,623 - INFO - Dataset shape after filtering: (36, 2081)
2025-04-14 11:58:36,625 - INFO - Features shape: (36, 2080), Labels shape: (36, 7)
2025-04-14 11:58:38,287 - INFO - Created model: Ensemble(
  (t1): Transformer(
    (attention_layers): ModuleList(
      (0-1): 2 x MultiHeadAttention(
        (qkv): Linear(in_features=2080, out_features=6240, bias=True)
        (fc_out): Linear(in_features=2080, out_features=2080, bias=True)
      )
    )
    (feed_forward): Sequential(
      (0): Linear(in_features=2080, out_features=128, bias=True)
      (1): GELU(approximate='none')
      (2): Dropout(p=0.2, inplace=False)
      (3): Linear(in_features=128, out_features=2080, bias=True)
    )
    (layer_norm1): LayerNorm((2080,), eps=1e-05, elementwise_affine=True)
    (layer_norm2): LayerNorm((2080,), eps=1e-05, elementwise_affine=True)
    (dropout): Dropout(p=0.2, inplace=False)
    (fc_out): Linear(in_features=2080, out_features=7, bias=True)
  )
  (t2): Transformer(
    (attention_layers): ModuleList(
      (0-3): 4 x MultiHeadAttention(
        (qkv): Linear(in_features=2080, out_features=6240, bias=True)
        (fc_out): Linear(in_features=2080, out_features=2080, bias=True)
      )
    )
    (feed_forward): Sequential(
      (0): Linear(in_features=2080, out_features=128, bias=True)
      (1): GELU(approximate='none')
      (2): Dropout(p=0.2, inplace=False)
      (3): Linear(in_features=128, out_features=2080, bias=True)
    )
    (layer_norm1): LayerNorm((2080,), eps=1e-05, elementwise_affine=True)
    (layer_norm2): LayerNorm((2080,), eps=1e-05, elementwise_affine=True)
    (dropout): Dropout(p=0.2, inplace=False)
    (fc_out): Linear(in_features=2080, out_features=7, bias=True)
  )
  (t3): Transformer(
    (attention_layers): ModuleList(
      (0-7): 8 x MultiHeadAttention(
        (qkv): Linear(in_features=2080, out_features=6240, bias=True)
        (fc_out): Linear(in_features=2080, out_features=2080, bias=True)
      )
    )
    (feed_forward): Sequential(
      (0): Linear(in_features=2080, out_features=128, bias=True)
      (1): GELU(approximate='none')
      (2): Dropout(p=0.2, inplace=False)
      (3): Linear(in_features=128, out_features=2080, bias=True)
    )
    (layer_norm1): LayerNorm((2080,), eps=1e-05, elementwise_affine=True)
    (layer_norm2): LayerNorm((2080,), eps=1e-05, elementwise_affine=True)
    (dropout): Dropout(p=0.2, inplace=False)
    (fc_out): Linear(in_features=2080, out_features=7, bias=True)
  )
)
2025-04-14 11:58:40,157 - INFO - Starting 30 independent runs of 3-fold cross validation
2025-04-14 11:58:40,170 - INFO - 
Starting Run 1/30
2025-04-14 11:58:40,188 - INFO - Run 1, Fold 1/3
2025-04-14 11:58:40,571 - INFO - Epoch 1: New best validation accuracy: 0.5000
2025-04-14 11:58:41,058 - INFO - Epoch 5
2025-04-14 11:58:41,058 - INFO - Train Loss: 25.1440
…
