…
2025-01-23 16:40:50,308 - INFO - Starting main training phase
2025-01-23 16:40:50,308 - INFO - Loading dataset: oil
2025-01-23 16:40:50,308 - INFO - Loading data from: /vol/ecrg-solar/woodj4/fishy-business/data/REIMS.xlsx
2025-01-23 16:41:02,573 - INFO - Loaded data with shape: (306, 2081)
2025-01-23 16:41:02,578 - INFO - Filtered data shape: (126, 2081)
2025-01-23 16:41:02,578 - INFO - Dataset shape after filtering: (126, 2081)
2025-01-23 16:41:02,580 - INFO - Features shape: (126, 2080), Labels shape: (126, 7)
2025-01-23 16:41:02,627 - INFO - Created model: TestTimeTransformer(
  (spectral_embedding): Sequential(
    (0): Linear(in_features=2080, out_features=256, bias=True)
    (1): LayerNorm((256,), eps=1e-05, elementwise_affine=True)
    (2): GELU(approximate='none')
    (3): Dropout(p=0.2, inplace=False)
    (4): Linear(in_features=256, out_features=128, bias=True)
    (5): LayerNorm((128,), eps=1e-05, elementwise_affine=True)
    (6): GELU(approximate='none')
  )
  (attention_layers): ModuleList(
    (0-3): 4 x MultiHeadAttention(
      (qkv): Linear(in_features=128, out_features=384, bias=True)
      (fc_out): Linear(in_features=128, out_features=128, bias=True)
    )
  )
  (feed_forward): Sequential(
    (0): Linear(in_features=128, out_features=512, bias=True)
    (1): GELU(approximate='none')
    (2): Dropout(p=0.2, inplace=False)
    (3): Linear(in_features=512, out_features=128, bias=True)
  )
  (layer_norms): ModuleList(
    (0-7): 8 x LayerNorm((128,), eps=1e-05, elementwise_affine=True)
  )
  (dropout): Dropout(p=0.2, inplace=False)
  (fc_out): Linear(in_features=128, out_features=7, bias=True)
  (prm_encoder): Sequential(
    (0): Linear(in_features=128, out_features=256, bias=True)
    (1): LayerNorm((256,), eps=1e-05, elementwise_affine=True)
    (2): GELU(approximate='none')
    (3): Dropout(p=0.2, inplace=False)
    (4): Linear(in_features=256, out_features=128, bias=True)
    (5): LayerNorm((128,), eps=1e-05, elementwise_affine=True)
    (6): GELU(approximate='none')
  )
  (confidence_net): Sequential(
    (0): Linear(in_features=128, out_features=128, bias=True)
    (1): LayerNorm((128,), eps=1e-05, elementwise_affine=True)
    (2): GELU(approximate='none')
    (3): Dropout(p=0.2, inplace=False)
    (4): Linear(in_features=128, out_features=1, bias=True)
    (5): Sigmoid()
  )
)
2025-01-23 16:41:02,856 - INFO - Evaluating test-time compute performance...
2025-01-23 16:41:02,859 - INFO - 
Processing fold 1/5
2025-01-23 16:41:02,869 - INFO - Created model: TestTimeTransformer(
  (spectral_embedding): Sequential(
    (0): Linear(in_features=2080, out_features=256, bias=True)
    (1): LayerNorm((256,), eps=1e-05, elementwise_affine=True)
    (2): GELU(approximate='none')
    (3): Dropout(p=0.2, inplace=False)
    (4): Linear(in_features=256, out_features=128, bias=True)
    (5): LayerNorm((128,), eps=1e-05, elementwise_affine=True)
    (6): GELU(approximate='none')
  )
  (attention_layers): ModuleList(
    (0-3): 4 x MultiHeadAttention(
      (qkv): Linear(in_features=128, out_features=384, bias=True)
      (fc_out): Linear(in_features=128, out_features=128, bias=True)
    )
  )
  (feed_forward): Sequential(
    (0): Linear(in_features=128, out_features=512, bias=True)
    (1): GELU(approximate='none')
    (2): Dropout(p=0.2, inplace=False)
    (3): Linear(in_features=512, out_features=128, bias=True)
  )
  (layer_norms): ModuleList(
    (0-7): 8 x LayerNorm((128,), eps=1e-05, elementwise_affine=True)
  )
  (dropout): Dropout(p=0.2, inplace=False)
  (fc_out): Linear(in_features=128, out_features=7, bias=True)
  (prm_encoder): Sequential(
    (0): Linear(in_features=128, out_features=256, bias=True)
    (1): LayerNorm((256,), eps=1e-05, elementwise_affine=True)
    (2): GELU(approximate='none')
    (3): Dropout(p=0.2, inplace=False)
    (4): Linear(in_features=256, out_features=128, bias=True)
    (5): LayerNorm((128,), eps=1e-05, elementwise_affine=True)
    (6): GELU(approximate='none')
  )
  (confidence_net): Sequential(
    (0): Linear(in_features=128, out_features=128, bias=True)
    (1): LayerNorm((128,), eps=1e-05, elementwise_affine=True)
    (2): GELU(approximate='none')
    (3): Dropout(p=0.2, inplace=False)
    (4): Linear(in_features=128, out_features=1, bias=True)
    (5): Sigmoid()
  )
)
2025-01-23 16:41:04,031 - INFO - Training base model for fold 1
2025-01-23 16:41:04,031 - INFO - Training model with single train/val split (80/20)
2025-01-23 16:41:04,034 - INFO - Training set size: 66
2025-01-23 16:41:04,034 - INFO - Validation set size: 34
2025-01-23 16:41:04,240 - INFO - Epoch 1: New best validation accuracy: 0.2000
…
2025-01-23 16:41:43,275 - INFO - accuracy: 0.3846
2025-01-23 16:41:43,275 - INFO - precision: 0.4738
2025-01-23 16:41:43,275 - INFO - recall: 0.3810
2025-01-23 16:41:43,275 - INFO - f1: 0.3590
2025-01-23 16:41:43,275 - INFO - 
Test-time compute metrics (monte carlo rollout):
2025-01-23 16:41:43,275 - INFO - accuracy: 0.3077
2025-01-23 16:41:43,275 - INFO - precision: 0.3085
2025-01-23 16:41:43,275 - INFO - recall: 0.2976
2025-01-23 16:41:43,275 - INFO - f1: 0.2913
2025-01-23 16:41:43,275 - INFO - 
Processing fold 2/5
2025-01-23 16:41:43,286 - INFO - Created model: TestTimeTransformer(
  (spectral_embedding): Sequential(
    (0): Linear(in_features=2080, out_features=256, bias=True)
    (1): LayerNorm((256,), eps=1e-05, elementwise_affine=True)
    (2): GELU(approximate='none')
    (3): Dropout(p=0.2, inplace=False)
    (4): Linear(in_features=256, out_features=128, bias=True)
    (5): LayerNorm((128,), eps=1e-05, elementwise_affine=True)
    (6): GELU(approximate='none')
  )
  (attention_layers): ModuleList(
    (0-3): 4 x MultiHeadAttention(
      (qkv): Linear(in_features=128, out_features=384, bias=True)
      (fc_out): Linear(in_features=128, out_features=128, bias=True)
    )
  )
  (feed_forward): Sequential(
    (0): Linear(in_features=128, out_features=512, bias=True)
    (1): GELU(approximate='none')
    (2): Dropout(p=0.2, inplace=False)
    (3): Linear(in_features=512, out_features=128, bias=True)
  )
  (layer_norms): ModuleList(
    (0-7): 8 x LayerNorm((128,), eps=1e-05, elementwise_affine=True)
  )
  (dropout): Dropout(p=0.2, inplace=False)
  (fc_out): Linear(in_features=128, out_features=7, bias=True)
  (prm_encoder): Sequential(
    (0): Linear(in_features=128, out_features=256, bias=True)
    (1): LayerNorm((256,), eps=1e-05, elementwise_affine=True)
    (2): GELU(approximate='none')
    (3): Dropout(p=0.2, inplace=False)
    (4): Linear(in_features=256, out_features=128, bias=True)
    (5): LayerNorm((128,), eps=1e-05, elementwise_affine=True)
    (6): GELU(approximate='none')
  )
  (confidence_net): Sequential(
    (0): Linear(in_features=128, out_features=128, bias=True)
    (1): LayerNorm((128,), eps=1e-05, elementwise_affine=True)
    (2): GELU(approximate='none')
    (3): Dropout(p=0.2, inplace=False)
    (4): Linear(in_features=128, out_features=1, bias=True)
    (5): Sigmoid()
  )
)
2025-01-23 16:41:43,289 - INFO - Training base model for fold 2
2025-01-23 16:41:43,289 - INFO - Training model with single train/val split (80/20)
2025-01-23 16:41:43,292 - INFO - Training set size: 67
2025-01-23 16:41:43,292 - INFO - Validation set size: 34
2025-01-23 16:41:43,329 - INFO - Epoch 1: New best validation accuracy: 0.1143
…
