…
2024-11-27 19:33:57,713 - INFO - Starting main training phase
2024-11-27 19:33:57,713 - INFO - Loading dataset: species
2024-11-27 19:33:57,713 - INFO - Loading data from: /vol/ecrg-solar/woodj4/fishy-business/data/REIMS.xlsx
2024-11-27 19:34:06,829 - INFO - Loaded data with shape: (306, 2081)
2024-11-27 19:34:06,834 - INFO - Filtered data shape: (108, 2081)
2024-11-27 19:34:06,835 - INFO - Dataset shape after filtering: (108, 2081)
2024-11-27 19:34:06,836 - INFO - Features shape: (108, 2080), Labels shape: (108, 2)
2024-11-27 19:34:07,092 - INFO - Created model: KAN(
  (layers): ModuleList(
    (0-2): 3 x KANLayer(
      (inner_linear1): Linear(in_features=2080, out_features=128, bias=True)
      (inner_bn1): BatchNorm1d(128, eps=1e-05, momentum=0.1, affine=True, track_running_stats=True)
      (inner_linear2): Linear(in_features=128, out_features=128, bias=True)
      (inner_bn2): BatchNorm1d(128, eps=1e-05, momentum=0.1, affine=True, track_running_stats=True)
      (inner_linear3): Linear(in_features=128, out_features=41610, bias=True)
      (outer_linear1): Linear(in_features=10, out_features=128, bias=True)
      (outer_bn1): BatchNorm1d(128, eps=1e-05, momentum=0.1, affine=True, track_running_stats=True)
      (outer_linear2): Linear(in_features=128, out_features=128, bias=True)
      (outer_bn2): BatchNorm1d(128, eps=1e-05, momentum=0.1, affine=True, track_running_stats=True)
      (outer_linear3): Linear(in_features=128, out_features=2080, bias=True)
      (dropout): Dropout(p=0.2, inplace=False)
    )
    (3): KANLayer(
      (inner_linear1): Linear(in_features=2080, out_features=128, bias=True)
      (inner_bn1): BatchNorm1d(128, eps=1e-05, momentum=0.1, affine=True, track_running_stats=True)
      (inner_linear2): Linear(in_features=128, out_features=128, bias=True)
      (inner_bn2): BatchNorm1d(128, eps=1e-05, momentum=0.1, affine=True, track_running_stats=True)
      (inner_linear3): Linear(in_features=128, out_features=41610, bias=True)
      (outer_linear1): Linear(in_features=10, out_features=128, bias=True)
      (outer_bn1): BatchNorm1d(128, eps=1e-05, momentum=0.1, affine=True, track_running_stats=True)
      (outer_linear2): Linear(in_features=128, out_features=128, bias=True)
      (outer_bn2): BatchNorm1d(128, eps=1e-05, momentum=0.1, affine=True, track_running_stats=True)
      (outer_linear3): Linear(in_features=128, out_features=2, bias=True)
      (dropout): Dropout(p=0.2, inplace=False)
    )
  )
)
2024-11-27 19:34:07,358 - INFO - Starting k-fold cross validation training
2024-11-27 19:34:07,370 - INFO - 
Starting Fold 1/5
2024-11-27 19:34:07,540 - INFO - Epoch 1: New best validation accuracy: 0.5000
2024-11-27 19:34:07,641 - INFO - Epoch 5
2024-11-27 19:34:07,641 - INFO - Train Loss: 0.7123
…
