…
2024-11-27 19:48:03,037 - INFO - Starting main training phase
2024-11-27 19:48:03,037 - INFO - Loading dataset: species
2024-11-27 19:48:03,038 - INFO - Loading data from: /vol/ecrg-solar/woodj4/fishy-business/data/REIMS.xlsx
2024-11-27 19:48:12,226 - INFO - Loaded data with shape: (306, 2081)
2024-11-27 19:48:12,231 - INFO - Filtered data shape: (108, 2081)
2024-11-27 19:48:12,231 - INFO - Dataset shape after filtering: (108, 2081)
2024-11-27 19:48:12,233 - INFO - Features shape: (108, 2080), Labels shape: (108, 2)
2024-11-27 19:48:12,386 - INFO - Created model: VAE(
  (encoder): Sequential(
    (0): Linear(in_features=2080, out_features=512, bias=True)
    (1): ReLU()
    (2): Dropout(p=0.2, inplace=False)
    (3): Linear(in_features=512, out_features=256, bias=True)
    (4): ReLU()
    (5): Dropout(p=0.2, inplace=False)
    (6): Linear(in_features=256, out_features=128, bias=True)
    (7): ReLU()
    (8): Dropout(p=0.2, inplace=False)
  )
  (fc_mu): Linear(in_features=128, out_features=128, bias=True)
  (fc_logvar): Linear(in_features=128, out_features=128, bias=True)
  (decoder): Sequential(
    (0): Linear(in_features=130, out_features=128, bias=True)
    (1): ReLU()
    (2): Dropout(p=0.2, inplace=False)
    (3): Linear(in_features=128, out_features=256, bias=True)
    (4): ReLU()
    (5): Dropout(p=0.2, inplace=False)
    (6): Linear(in_features=256, out_features=512, bias=True)
    (7): ReLU()
    (8): Dropout(p=0.2, inplace=False)
    (9): Linear(in_features=512, out_features=2080, bias=True)
    (10): Sigmoid()
    (11): Dropout(p=0.2, inplace=False)
  )
  (classifier): Sequential(
    (0): Linear(in_features=128, out_features=64, bias=True)
    (1): ReLU()
    (2): Linear(in_features=64, out_features=2, bias=True)
  )
)
2024-11-27 19:48:12,621 - INFO - Starting k-fold cross validation training
2024-11-27 19:48:12,627 - INFO - 
Starting Fold 1/5
2024-11-27 19:48:12,788 - INFO - Epoch 1: New best validation accuracy: 0.5000
2024-11-27 19:48:12,806 - INFO - Epoch 2: New best validation accuracy: 0.5417
2024-11-27 19:48:12,851 - INFO - Epoch 5
2024-11-27 19:48:12,851 - INFO - Train Loss: 0.6887
…
