INFO:__main__:Reading the dataset: fish cross-species
INFO:__main__:model: Transformer(
  (encoder): Encoder(
    (layers): ModuleList(
      (0-2): 3 x EncoderLayer(
        (self_attention): MultiHeadAttention(
          (query): Linear(in_features=1023, out_features=1023, bias=True)
          (key): Linear(in_features=1023, out_features=1023, bias=True)
          (value): Linear(in_features=1023, out_features=1023, bias=True)
          (fc_out): Linear(in_features=1023, out_features=1023, bias=True)
        )
        (feed_forward): FeedForward(
          (fc1): Linear(in_features=1023, out_features=128, bias=True)
          (fc2): Linear(in_features=128, out_features=1023, bias=True)
          (dropout): Dropout(p=0.2, inplace=False)
        )
        (norm1): LayerNorm((1023,), eps=1e-05, elementwise_affine=True)
        (norm2): LayerNorm((1023,), eps=1e-05, elementwise_affine=True)
        (dropout1): Dropout(p=0.2, inplace=False)
        (dropout2): Dropout(p=0.2, inplace=False)
      )
    )
  )
  (fc): Linear(in_features=1023, out_features=1023, bias=True)
)
INFO:__main__:Pre-training the network: Masked Spectra Modelling
INFO:pre_training:Epoch [1/100], Loss: 0.0691, Val: 0.0021
INFO:pre_training:Epoch [2/100], Loss: 0.0591, Val: 0.0018
INFO:pre_training:Epoch [3/100], Loss: 0.0536, Val: 0.0016
INFO:pre_training:Epoch [4/100], Loss: 0.0491, Val: 0.0015
INFO:pre_training:Epoch [5/100], Loss: 0.0454, Val: 0.0013
…
INFO:pre_training:Epoch [94/100], Loss: 0.0072, Val: 0.0003
INFO:pre_training:Epoch [95/100], Loss: 0.0071, Val: 0.0003
INFO:pre_training:Epoch [96/100], Loss: 0.0070, Val: 0.0003
INFO:pre_training:Epoch [97/100], Loss: 0.0069, Val: 0.0005
INFO:pre_training:Epoch [98/100], Loss: 0.0069, Val: 0.0003
INFO:pre_training:Epoch [99/100], Loss: 0.0068, Val: 0.0003
INFO:pre_training:Epoch [100/100], Loss: 0.0067, Val: 0.0003
INFO:__main__:Total time taken to pre-train the model: 63.38s
INFO:__main__:model: Transformer(
  (encoder): Encoder(
    (layers): ModuleList(
      (0-2): 3 x EncoderLayer(
        (self_attention): MultiHeadAttention(
          (query): Linear(in_features=1023, out_features=1023, bias=True)
          (key): Linear(in_features=1023, out_features=1023, bias=True)
          (value): Linear(in_features=1023, out_features=1023, bias=True)
          (fc_out): Linear(in_features=1023, out_features=1023, bias=True)
        )
        (feed_forward): FeedForward(
          (fc1): Linear(in_features=1023, out_features=128, bias=True)
          (fc2): Linear(in_features=128, out_features=1023, bias=True)
          (dropout): Dropout(p=0.2, inplace=False)
        )
        (norm1): LayerNorm((1023,), eps=1e-05, elementwise_affine=True)
        (norm2): LayerNorm((1023,), eps=1e-05, elementwise_affine=True)
        (dropout1): Dropout(p=0.2, inplace=False)
        (dropout2): Dropout(p=0.2, inplace=False)
      )
    )
  )
  (fc): Linear(in_features=1023, out_features=3, bias=True)
)
INFO:__main__:Training the network
INFO:train:Epoch 1/100, Train Loss: 1.0972, Train Acc: 0.4003, Val Loss: 1.0930, Val Acc: 0.3871
INFO:train:Epoch 2/100, Train Loss: 1.0900, Train Acc: 0.4180, Val Loss: 1.0802, Val Acc: 0.3871
INFO:train:Epoch 3/100, Train Loss: 1.0739, Train Acc: 0.4180, Val Loss: 1.0546, Val Acc: 0.4194
INFO:train:Epoch 4/100, Train Loss: 1.0375, Train Acc: 0.4672, Val Loss: 0.9999, Val Acc: 0.6129
…
