INFO:__main__:Reading the dataset: fish cross-species
INFO:__main__:model: Transformer(
  (encoder): Encoder(
    (layers): ModuleList(
      (0-2): 3 x EncoderLayer(
        (self_attention): MultiHeadAttention(
          (query): Linear(in_features=1023, out_features=1023, bias=True)
          (key): Linear(in_features=1023, out_features=1023, bias=True)
          (value): Linear(in_features=1023, out_features=1023, bias=True)
          (fc_out): Linear(in_features=1023, out_features=1023, bias=True)
        )
        (feed_forward): FeedForward(
          (fc1): Linear(in_features=1023, out_features=128, bias=True)
          (fc2): Linear(in_features=128, out_features=1023, bias=True)
          (dropout): Dropout(p=0.2, inplace=False)
        )
        (norm1): LayerNorm((1023,), eps=1e-05, elementwise_affine=True)
        (norm2): LayerNorm((1023,), eps=1e-05, elementwise_affine=True)
        (dropout1): Dropout(p=0.2, inplace=False)
        (dropout2): Dropout(p=0.2, inplace=False)
      )
    )
  )
  (fc): Linear(in_features=1023, out_features=1023, bias=True)
)
INFO:__main__:Pre-training the network: Masked Spectra Modelling
INFO:pre_training:Epoch [1/100], Loss: 0.0687, Val: 0.0021
INFO:pre_training:Epoch [2/100], Loss: 0.0589, Val: 0.0019
INFO:pre_training:Epoch [3/100], Loss: 0.0531, Val: 0.0016
INFO:pre_training:Epoch [4/100], Loss: 0.0489, Val: 0.0015
INFO:pre_training:Epoch [5/100], Loss: 0.0452, Val: 0.0014
…
INFO:pre_training:Epoch [94/100], Loss: 0.0072, Val: 0.0003
INFO:pre_training:Epoch [95/100], Loss: 0.0072, Val: 0.0003
INFO:pre_training:Epoch [96/100], Loss: 0.0071, Val: 0.0003
INFO:pre_training:Epoch [97/100], Loss: 0.0070, Val: 0.0003
INFO:pre_training:Epoch [98/100], Loss: 0.0069, Val: 0.0003
INFO:pre_training:Epoch [99/100], Loss: 0.0068, Val: 0.0003
INFO:pre_training:Epoch [100/100], Loss: 0.0068, Val: 0.0003
INFO:__main__:Total time taken to pre-train the model: 63.16s
INFO:__main__:model: Transformer(
  (encoder): Encoder(
    (layers): ModuleList(
      (0-2): 3 x EncoderLayer(
        (self_attention): MultiHeadAttention(
          (query): Linear(in_features=1023, out_features=1023, bias=True)
          (key): Linear(in_features=1023, out_features=1023, bias=True)
          (value): Linear(in_features=1023, out_features=1023, bias=True)
          (fc_out): Linear(in_features=1023, out_features=1023, bias=True)
        )
        (feed_forward): FeedForward(
          (fc1): Linear(in_features=1023, out_features=128, bias=True)
          (fc2): Linear(in_features=128, out_features=1023, bias=True)
          (dropout): Dropout(p=0.2, inplace=False)
        )
        (norm1): LayerNorm((1023,), eps=1e-05, elementwise_affine=True)
        (norm2): LayerNorm((1023,), eps=1e-05, elementwise_affine=True)
        (dropout1): Dropout(p=0.2, inplace=False)
        (dropout2): Dropout(p=0.2, inplace=False)
      )
    )
  )
  (fc): Linear(in_features=1023, out_features=3, bias=True)
)
INFO:__main__:Training the network
INFO:train:Epoch 1/100, Train Loss: 1.0970, Train Acc: 0.3948, Val Loss: 1.0924, Val Acc: 0.3871
INFO:train:Epoch 2/100, Train Loss: 1.0897, Train Acc: 0.4180, Val Loss: 1.0808, Val Acc: 0.4194
INFO:train:Epoch 3/100, Train Loss: 1.0763, Train Acc: 0.4180, Val Loss: 1.0608, Val Acc: 0.4516
INFO:train:Epoch 4/100, Train Loss: 1.0487, Train Acc: 0.4344, Val Loss: 1.0076, Val Acc: 0.5484
…
