INFO:__main__:Reading the dataset: fish cross-species
INFO:__main__:model: Transformer(
  (encoder): Encoder(
    (layers): ModuleList(
      (0-2): 3 x EncoderLayer(
        (self_attention): MultiHeadAttention(
          (query): Linear(in_features=1023, out_features=1023, bias=True)
          (key): Linear(in_features=1023, out_features=1023, bias=True)
          (value): Linear(in_features=1023, out_features=1023, bias=True)
          (fc_out): Linear(in_features=1023, out_features=1023, bias=True)
        )
        (feed_forward): FeedForward(
          (fc1): Linear(in_features=1023, out_features=128, bias=True)
          (fc2): Linear(in_features=128, out_features=1023, bias=True)
          (dropout): Dropout(p=0.2, inplace=False)
        )
        (norm1): LayerNorm((1023,), eps=1e-05, elementwise_affine=True)
        (norm2): LayerNorm((1023,), eps=1e-05, elementwise_affine=True)
        (dropout1): Dropout(p=0.2, inplace=False)
        (dropout2): Dropout(p=0.2, inplace=False)
      )
    )
  )
  (fc): Linear(in_features=1023, out_features=1023, bias=True)
)
INFO:__main__:Pre-training the network: Masked Spectra Modelling
INFO:pre_training:Epoch [1/100], Loss: 0.0684, Val: 0.0021
INFO:pre_training:Epoch [2/100], Loss: 0.0586, Val: 0.0018
INFO:pre_training:Epoch [3/100], Loss: 0.0532, Val: 0.0017
INFO:pre_training:Epoch [4/100], Loss: 0.0486, Val: 0.0015
INFO:pre_training:Epoch [5/100], Loss: 0.0449, Val: 0.0013
…
INFO:pre_training:Epoch [94/100], Loss: 0.0073, Val: 0.0003
INFO:pre_training:Epoch [95/100], Loss: 0.0072, Val: 0.0003
INFO:pre_training:Epoch [96/100], Loss: 0.0071, Val: 0.0003
INFO:pre_training:Epoch [97/100], Loss: 0.0070, Val: 0.0003
INFO:pre_training:Epoch [98/100], Loss: 0.0070, Val: 0.0003
INFO:pre_training:Epoch [99/100], Loss: 0.0069, Val: 0.0003
INFO:pre_training:Epoch [100/100], Loss: 0.0068, Val: 0.0003
INFO:__main__:Total time taken to pre-train the model: 63.00s
INFO:__main__:model: Transformer(
  (encoder): Encoder(
    (layers): ModuleList(
      (0-2): 3 x EncoderLayer(
        (self_attention): MultiHeadAttention(
          (query): Linear(in_features=1023, out_features=1023, bias=True)
          (key): Linear(in_features=1023, out_features=1023, bias=True)
          (value): Linear(in_features=1023, out_features=1023, bias=True)
          (fc_out): Linear(in_features=1023, out_features=1023, bias=True)
        )
        (feed_forward): FeedForward(
          (fc1): Linear(in_features=1023, out_features=128, bias=True)
          (fc2): Linear(in_features=128, out_features=1023, bias=True)
          (dropout): Dropout(p=0.2, inplace=False)
        )
        (norm1): LayerNorm((1023,), eps=1e-05, elementwise_affine=True)
        (norm2): LayerNorm((1023,), eps=1e-05, elementwise_affine=True)
        (dropout1): Dropout(p=0.2, inplace=False)
        (dropout2): Dropout(p=0.2, inplace=False)
      )
    )
  )
  (fc): Linear(in_features=1023, out_features=3, bias=True)
)
INFO:__main__:Training the network
INFO:train:Epoch 1/100, Train Loss: 1.0961, Train Acc: 0.3907, Val Loss: 1.0932, Val Acc: 0.4194
INFO:train:Epoch 2/100, Train Loss: 1.0881, Train Acc: 0.4098, Val Loss: 1.0835, Val Acc: 0.4194
INFO:train:Epoch 3/100, Train Loss: 1.0724, Train Acc: 0.4126, Val Loss: 1.0657, Val Acc: 0.4194
INFO:train:Epoch 4/100, Train Loss: 1.0394, Train Acc: 0.4768, Val Loss: 1.0185, Val Acc: 0.5484
…
