INFO:__main__:Reading the dataset: fish instance-recognition
INFO:__main__:model: Transformer(
  (encoder): Encoder(
    (layers): ModuleList(
      (0-3): 4 x EncoderLayer(
        (self_attention): MultiHeadAttention(
          (query): Linear(in_features=2046, out_features=2046, bias=True)
          (key): Linear(in_features=2046, out_features=2046, bias=True)
          (value): Linear(in_features=2046, out_features=2046, bias=True)
          (fc_out): Linear(in_features=2046, out_features=2046, bias=True)
        )
        (feed_forward): FeedForward(
          (fc1): Linear(in_features=2046, out_features=128, bias=True)
          (fc2): Linear(in_features=128, out_features=2046, bias=True)
          (dropout): Dropout(p=0.2, inplace=False)
        )
        (norm1): LayerNorm((2046,), eps=1e-05, elementwise_affine=True)
        (norm2): LayerNorm((2046,), eps=1e-05, elementwise_affine=True)
        (dropout1): Dropout(p=0.2, inplace=False)
        (dropout2): Dropout(p=0.2, inplace=False)
      )
    )
  )
  (decoder): Decoder(
    (layers): ModuleList(
      (0-3): 4 x DecoderLayer(
        (self_attention): MultiHeadAttention(
          (query): Linear(in_features=2046, out_features=2046, bias=True)
          (key): Linear(in_features=2046, out_features=2046, bias=True)
          (value): Linear(in_features=2046, out_features=2046, bias=True)
          (fc_out): Linear(in_features=2046, out_features=2046, bias=True)
        )
        (cross_attention): MultiHeadAttention(
          (query): Linear(in_features=2046, out_features=2046, bias=True)
          (key): Linear(in_features=2046, out_features=2046, bias=True)
          (value): Linear(in_features=2046, out_features=2046, bias=True)
          (fc_out): Linear(in_features=2046, out_features=2046, bias=True)
        )
        (feed_forward): FeedForward(
          (fc1): Linear(in_features=2046, out_features=128, bias=True)
          (fc2): Linear(in_features=128, out_features=2046, bias=True)
          (dropout): Dropout(p=0.2, inplace=False)
        )
        (norm1): LayerNorm((2046,), eps=1e-05, elementwise_affine=True)
        (norm2): LayerNorm((2046,), eps=1e-05, elementwise_affine=True)
        (norm3): LayerNorm((2046,), eps=1e-05, elementwise_affine=True)
        (dropout1): Dropout(p=0.2, inplace=False)
        (dropout2): Dropout(p=0.2, inplace=False)
        (dropout3): Dropout(p=0.2, inplace=False)
      )
    )
  )
  (fc): Linear(in_features=2046, out_features=2, bias=True)
)
INFO:__main__:Training the network
INFO:train:Epoch 1/1000 	Train Loss: 0.8100, Train Acc: 0.3929	 Val Loss: 2.3086, Val Acc: 0.7333
INFO:train:Epoch 2/1000 	Train Loss: 1.0364, Train Acc: 0.8036	 Val Loss: 8.6631, Val Acc: 0.3333
INFO:train:Epoch 3/1000 	Train Loss: 3.3382, Train Acc: 0.6250	 Val Loss: 2.1482, Val Acc: 0.6000
INFO:train:Epoch 4/1000 	Train Loss: 0.5010, Train Acc: 0.9107	 Val Loss: 2.0038, Val Acc: 0.7333
…
