…
2024-11-27 18:51:36,077 - INFO - Starting main training phase
2024-11-27 18:51:36,077 - INFO - Loading dataset: part
2024-11-27 18:51:36,077 - INFO - Loading data from: /vol/ecrg-solar/woodj4/fishy-business/data/REIMS.xlsx
2024-11-27 18:51:45,267 - INFO - Loaded data with shape: (306, 2081)
2024-11-27 18:51:45,274 - INFO - Filtered data shape: (36, 2081)
2024-11-27 18:51:45,274 - INFO - Dataset shape after filtering: (36, 2081)
2024-11-27 18:51:45,275 - INFO - Features shape: (36, 2080), Labels shape: (36, 7)
2024-11-27 18:51:45,579 - INFO - Created model: CNN(
  (conv_layers): Sequential(
    (0): Conv1d(1, 32, kernel_size=(3,), stride=(1,), padding=(1,))
    (1): BatchNorm1d(32, eps=1e-05, momentum=0.1, affine=True, track_running_stats=True)
    (2): Conv1d(32, 64, kernel_size=(3,), stride=(1,), padding=(1,))
    (3): BatchNorm1d(64, eps=1e-05, momentum=0.1, affine=True, track_running_stats=True)
    (4): ReLU()
    (5): MaxPool1d(kernel_size=2, stride=2, padding=0, dilation=1, ceil_mode=False)
    (6): Dropout(p=0.2, inplace=False)
    (7): Conv1d(64, 128, kernel_size=(3,), stride=(1,), padding=(1,))
    (8): BatchNorm1d(128, eps=1e-05, momentum=0.1, affine=True, track_running_stats=True)
    (9): Conv1d(128, 256, kernel_size=(3,), stride=(1,), padding=(1,))
    (10): BatchNorm1d(256, eps=1e-05, momentum=0.1, affine=True, track_running_stats=True)
    (11): ReLU()
    (12): MaxPool1d(kernel_size=2, stride=2, padding=0, dilation=1, ceil_mode=False)
  )
  (flatten): Flatten(start_dim=1, end_dim=-1)
  (fc_layers): Sequential(
    (0): Linear(in_features=133120, out_features=256, bias=True)
    (1): ReLU()
    (2): Dropout(p=0.2, inplace=False)
    (3): Linear(in_features=256, out_features=7, bias=True)
  )
)
2024-11-27 18:51:45,847 - INFO - Starting k-fold cross validation training
2024-11-27 18:51:45,852 - INFO - 
Starting Fold 1/3
2024-11-27 18:51:46,131 - INFO - Epoch 1: New best validation accuracy: 0.1429
2024-11-27 18:51:46,263 - INFO - Epoch 5
2024-11-27 18:51:46,263 - INFO - Train Loss: 17.5798
2024-11-27 18:51:46,263 - INFO - Val Loss: 3.6349
2024-11-27 18:51:46,263 - INFO - Current Val Accuracy: 0.1429
…
