…
2024-11-27 18:53:01,582 - INFO - Starting main training phase
2024-11-27 18:53:01,582 - INFO - Loading dataset: part
2024-11-27 18:53:01,582 - INFO - Loading data from: /vol/ecrg-solar/woodj4/fishy-business/data/REIMS.xlsx
2024-11-27 18:53:10,664 - INFO - Loaded data with shape: (306, 2081)
2024-11-27 18:53:10,670 - INFO - Filtered data shape: (36, 2081)
2024-11-27 18:53:10,670 - INFO - Dataset shape after filtering: (36, 2081)
2024-11-27 18:53:10,671 - INFO - Features shape: (36, 2080), Labels shape: (36, 7)
2024-11-27 18:53:10,930 - INFO - Created model: KAN(
  (layers): ModuleList(
    (0-2): 3 x KANLayer(
      (inner_linear1): Linear(in_features=2080, out_features=128, bias=True)
      (inner_bn1): BatchNorm1d(128, eps=1e-05, momentum=0.1, affine=True, track_running_stats=True)
      (inner_linear2): Linear(in_features=128, out_features=128, bias=True)
      (inner_bn2): BatchNorm1d(128, eps=1e-05, momentum=0.1, affine=True, track_running_stats=True)
      (inner_linear3): Linear(in_features=128, out_features=41610, bias=True)
      (outer_linear1): Linear(in_features=10, out_features=128, bias=True)
      (outer_bn1): BatchNorm1d(128, eps=1e-05, momentum=0.1, affine=True, track_running_stats=True)
      (outer_linear2): Linear(in_features=128, out_features=128, bias=True)
      (outer_bn2): BatchNorm1d(128, eps=1e-05, momentum=0.1, affine=True, track_running_stats=True)
      (outer_linear3): Linear(in_features=128, out_features=2080, bias=True)
      (dropout): Dropout(p=0.2, inplace=False)
    )
    (3): KANLayer(
      (inner_linear1): Linear(in_features=2080, out_features=128, bias=True)
      (inner_bn1): BatchNorm1d(128, eps=1e-05, momentum=0.1, affine=True, track_running_stats=True)
      (inner_linear2): Linear(in_features=128, out_features=128, bias=True)
      (inner_bn2): BatchNorm1d(128, eps=1e-05, momentum=0.1, affine=True, track_running_stats=True)
      (inner_linear3): Linear(in_features=128, out_features=41610, bias=True)
      (outer_linear1): Linear(in_features=10, out_features=128, bias=True)
      (outer_bn1): BatchNorm1d(128, eps=1e-05, momentum=0.1, affine=True, track_running_stats=True)
      (outer_linear2): Linear(in_features=128, out_features=128, bias=True)
      (outer_bn2): BatchNorm1d(128, eps=1e-05, momentum=0.1, affine=True, track_running_stats=True)
      (outer_linear3): Linear(in_features=128, out_features=7, bias=True)
      (dropout): Dropout(p=0.2, inplace=False)
    )
  )
)
2024-11-27 18:53:11,188 - INFO - Starting k-fold cross validation training
2024-11-27 18:53:11,199 - INFO - 
Starting Fold 1/3
2024-11-27 18:53:11,377 - INFO - Epoch 1: New best validation accuracy: 0.1429
2024-11-27 18:53:11,503 - INFO - Epoch 5
2024-11-27 18:53:11,503 - INFO - Train Loss: 2.0617
…
