…
2024-11-27 18:50:17,875 - INFO - Loading data from: /vol/ecrg-solar/woodj4/fishy-business/data/REIMS.xlsx
2024-11-27 18:50:26,975 - INFO - Loaded data with shape: (306, 2081)
2024-11-27 18:50:26,981 - INFO - Filtered data shape: (36, 2081)
2024-11-27 18:50:26,981 - INFO - Dataset shape after filtering: (36, 2081)
2024-11-27 18:50:26,983 - INFO - Features shape: (36, 2080), Labels shape: (36, 7)
2024-11-27 18:50:28,151 - INFO - Created model: Transformer(
  (encoder): Encoder(
    (layers): ModuleList(
      (0-3): 4 x EncoderLayer(
        (self_attention): MultiHeadAttention(
          (query): Linear(in_features=2080, out_features=2080, bias=True)
          (key): Linear(in_features=2080, out_features=2080, bias=True)
          (value): Linear(in_features=2080, out_features=2080, bias=True)
          (fc_out): Linear(in_features=2080, out_features=2080, bias=True)
        )
        (feed_forward): FeedForward(
          (fc1): Linear(in_features=2080, out_features=128, bias=True)
          (fc2): Linear(in_features=128, out_features=2080, bias=True)
          (dropout): Dropout(p=0.2, inplace=False)
        )
        (norm1): LayerNorm((2080,), eps=1e-05, elementwise_affine=True)
        (norm2): LayerNorm((2080,), eps=1e-05, elementwise_affine=True)
        (dropout1): Dropout(p=0.2, inplace=False)
        (dropout2): Dropout(p=0.2, inplace=False)
      )
    )
  )
  (decoder): Decoder(
    (layers): ModuleList(
      (0-3): 4 x DecoderLayer(
        (self_attention): MultiHeadAttention(
          (query): Linear(in_features=2080, out_features=2080, bias=True)
          (key): Linear(in_features=2080, out_features=2080, bias=True)
          (value): Linear(in_features=2080, out_features=2080, bias=True)
          (fc_out): Linear(in_features=2080, out_features=2080, bias=True)
        )
        (cross_attention): MultiHeadAttention(
          (query): Linear(in_features=2080, out_features=2080, bias=True)
          (key): Linear(in_features=2080, out_features=2080, bias=True)
          (value): Linear(in_features=2080, out_features=2080, bias=True)
          (fc_out): Linear(in_features=2080, out_features=2080, bias=True)
        )
        (feed_forward): FeedForward(
          (fc1): Linear(in_features=2080, out_features=128, bias=True)
          (fc2): Linear(in_features=128, out_features=2080, bias=True)
          (dropout): Dropout(p=0.2, inplace=False)
        )
        (norm1): LayerNorm((2080,), eps=1e-05, elementwise_affine=True)
        (norm2): LayerNorm((2080,), eps=1e-05, elementwise_affine=True)
        (norm3): LayerNorm((2080,), eps=1e-05, elementwise_affine=True)
        (dropout1): Dropout(p=0.2, inplace=False)
        (dropout2): Dropout(p=0.2, inplace=False)
        (dropout3): Dropout(p=0.2, inplace=False)
      )
    )
  )
  (fc): Linear(in_features=2080, out_features=7, bias=True)
)
2024-11-27 18:50:28,575 - INFO - Starting k-fold cross validation training
2024-11-27 18:50:28,597 - INFO - 
Starting Fold 1/3
2024-11-27 18:50:28,871 - INFO - Epoch 1: New best validation accuracy: 0.5000
2024-11-27 18:50:29,357 - INFO - Epoch 5
2024-11-27 18:50:29,357 - INFO - Train Loss: 110.3585
2024-11-27 18:50:29,357 - INFO - Val Loss: 362.3341
2024-11-27 18:50:29,357 - INFO - Current Val Accuracy: 0.1429
…
