…

2024-11-27 19:19:59,689 - INFO - Starting main training phase
2024-11-27 19:19:59,689 - INFO - Loading dataset: part
2024-11-27 19:19:59,689 - INFO - Loading data from: /vol/ecrg-solar/woodj4/fishy-business/data/REIMS.xlsx
2024-11-27 19:20:08,757 - INFO - Loaded data with shape: (306, 2081)
2024-11-27 19:20:08,763 - INFO - Filtered data shape: (36, 2081)
2024-11-27 19:20:08,764 - INFO - Dataset shape after filtering: (36, 2081)
2024-11-27 19:20:08,765 - INFO - Features shape: (36, 2080), Labels shape: (36, 7)
2024-11-27 19:20:08,919 - INFO - Created model: VAE(
  (encoder): Sequential(
    (0): Linear(in_features=2080, out_features=512, bias=True)
    (1): ReLU()
    (2): Dropout(p=0.2, inplace=False)
    (3): Linear(in_features=512, out_features=256, bias=True)
    (4): ReLU()
    (5): Dropout(p=0.2, inplace=False)
    (6): Linear(in_features=256, out_features=128, bias=True)
    (7): ReLU()
    (8): Dropout(p=0.2, inplace=False)
  )
  (fc_mu): Linear(in_features=128, out_features=128, bias=True)
  (fc_logvar): Linear(in_features=128, out_features=128, bias=True)
  (decoder): Sequential(
    (0): Linear(in_features=135, out_features=128, bias=True)
    (1): ReLU()
    (2): Dropout(p=0.2, inplace=False)
    (3): Linear(in_features=128, out_features=256, bias=True)
    (4): ReLU()
    (5): Dropout(p=0.2, inplace=False)
    (6): Linear(in_features=256, out_features=512, bias=True)
    (7): ReLU()
    (8): Dropout(p=0.2, inplace=False)
    (9): Linear(in_features=512, out_features=2080, bias=True)
    (10): Sigmoid()
    (11): Dropout(p=0.2, inplace=False)
  )
  (classifier): Sequential(
    (0): Linear(in_features=128, out_features=64, bias=True)
    (1): ReLU()
    (2): Linear(in_features=64, out_features=7, bias=True)
  )
)
2024-11-27 19:20:09,157 - INFO - Starting k-fold cross validation training
2024-11-27 19:20:09,162 - INFO - 
Starting Fold 1/3
2024-11-27 19:20:09,333 - INFO - Epoch 1: New best validation accuracy: 0.3571
2024-11-27 19:20:09,420 - INFO - Epoch 5
2024-11-27 19:20:09,420 - INFO - Train Loss: 1.9439
2024-11-27 19:20:09,420 - INFO - Val Loss: 1.9542
2024-11-27 19:20:09,421 - INFO - Current Val Accuracy: 0.1429
…
